lstm/_sim/model.pt (torch_old, 926695 bytes, 17 tensors)

sur.lW f4 [100, 100]
0	0x3e47cd1d	0.19511838
1	0x3e5a0914	0.21292526
2	0xbe89b141	-0.26893046
3	0x3f635f73	0.8881752
4	0x3e8702df	0.26369378
5	0x3e0e7d26	0.13914928
6	0x3e6a7966	0.22897872
7	0x3e161395	0.14655907
8	0xbd97aa3a	-0.07405515
9	0xbdfe0203	-0.124027275
10	0x3e8077dd	0.25091448
11	0xbd9972c2	-0.074925914
12	0xbcc2442c	-0.023714148
13	0x3e46cd9c	0.19414371
14	0x3d45b4bd	0.04826807
15	0xbe2d2331	-0.16907956
16	0xbd4fe486	-0.050755046
17	0xbe855a16	-0.26045293
18	0x3dbb752b	0.091532074
19	0x3ec9689f	0.39337632
20	0xbda47d48	-0.08031708
21	0xbd9f5e85	-0.077817
22	0xbe33ac7f	-0.17546271
23	0x3c57ed12	0.013179081
24	0x3dabe658	0.08393544
25	0xbddc7449	-0.10764367
26	0xbd943ec0	-0.07238531
27	0xbd2aa963	-0.041665446
28	0xbdf9bb0f	-0.12193882
29	0x3e1ed99f	0.15512703
30	0xbe7425c5	-0.23842533
31	0xbe934179	-0.2876089
32	0x3e130b09	0.14359678
33	0xbe789f4d	-0.24279518
34	0x3ecf87e2	0.40533358
35	0x3dd0b844	0.10191396
36	0x3ba0ea45	0.0049107396
37	0x3ea938e4	0.33051217
38	0x3d5d4316	0.054019056
39	0xbf161868	-0.5863099
40	0x3e7943ed	0.24342318
41	0xbe256ae4	-0.16154057
42	0xbec96e1f	-0.39341828
43	0xbf0a036f	-0.5391149
44	0xbd0a2fb4	-0.0337369
45	0xbeb9adc4	-0.36265385
46	0xbf25c5e5	-0.6475509
47	0xbdba2d65	-0.090906896
48	0xbe830394	-0.25588667
49	0x3f1d72e6	0.61503446
50	0xbcbbaffd	-0.022911066
51	0x3d80fe81	0.06298543
52	0x3ecb2242	0.39674574
53	0x3e8c9b79	0.27462366
54	0xbea7afda	-0.32751352
55	0x3e7f6f8a	0.24944893
56	0xbdea606d	-0.11444173
57	0xbebdfa58	-0.3710506
58	0x3e784905	0.24246605
59	0xbe33094c	-0.17484015
60	0xbcf65b64	-0.030072875
61	0xbe1aa6ad	-0.15102644
62	0xbe733793	-0.23751669
63	0x3d2a2c8d	0.041546393
64	0xbe735d4a	-0.23766056
65	0xbdd3f290	-0.103489995
66	0x3de171ed	0.11008058
67	0xbec7a35a	-0.38991815
68	0xbe931604	-0.28727734
69	0xbd70fc29	-0.05883423
70	0x3e50a73f	0.203763
71	0x3ea2a96b	0.3176988
72	0x3ebaab36	0.3645875
73	0xbd8e89ce	-0.06959878
74	0x3e7aef7f	0.24505423
75	0xbe562df0	-0.20915961
76	0x3e8ce2ac	0.27516687
77	0x3e47811e	0.19482848
78	0x3ea91e7c	0.3303107
79	0xbd12e526	-0.035863064
80	0xbdfd2bcb	-0.123618685
81	0xbe1494db	-0.14509909
82	0x3dd2aec7	0.102872424
83	0xbecc770d	-0.3993458
84	0xbe60c117	-0.21948658
85	0x3ea5ceb9	0.3238428
86	0x3e8be9af	0.27326724
87	0xbe6e84b1	-0.23292805
88	0x3e4351bf	0.19074152
89	0xbeaa22bf	-0.33229634
90	0x3df0d389	0.11759097
91	0xbf1a11a5	-0.60183173
92	0xbdc5f374	-0.096655756
93	0xbe85ec3f	-0.26156804
94	0x3e8a97d4	0.2706896
95	0x3dc3d177	0.095614366
96	0x3ec55801	0.38543704
97	0x3ebb242a	0.36551028
98	0x3e57d774	0.21078283
99	0x3dbcaea9	0.09213001
100	0xbe7a2f9a	-0.24432221
101	0x3e80b14e	0.25135273
102	0xbdba95ff	-0.09110641
103	0x3f444640	0.76669693
104	0x3efe74b4	0.49698412
105	0x3db9602f	0.09051549
106	0x3dd9f331	0.10642088
107	0x3ea141b4	0.3149544
108	0x3e07f638	0.13277519
109	0x3e64dbb8	0.22349441
110	0x3df175ea	0.117900684
111	0xbe7b04d8	-0.24513566
112	0xbe544b70	-0.20731902
113	0x3e94d5c4	0.2906934
114	0x3e1b78f2	0.15182856
115	0xbe882ae2	-0.26595217
116	0xbc97fba8	-0.018552616
117	0xbef6f034	-0.48230135
118	0x3e9f681b	0.31134114
119	0x3f01da51	0.5072375
120	0x3e1873c5	0.14887913
121	0xbde8d71c	-0.11369154
122	0xbe6b639a	-0.22987214
123	0xbea235ae	-0.3168158
124	0xbed87430	-0.42276144
125	0xbf0fe212	-0.5620433
126	0xbed3146f	-0.41226527
127	0xbe738255	-0.23780186
128	0xbd48e580	-0.049046993
129	0x3ece4597	0.40287468
130	0xbebcd98a	-0.3688472
131	0xbf0e20a9	-0.55518585
132	0x3e46fe4a	0.19432941
133	0xbd384717	-0.04498967
134	0x3d417616	0.047231756
135	0x3e1646dc	0.14675468
136	0xbda8de27	-0.08245497
137	0x3e9af4cb	0.30264887
138	0x3ca25b78	0.019819006
139	0xbf019e90	-0.5063257
140	0xbce0d813	-0.027446782
141	0xbe50adfb	-0.20378868
142	0xbefe52c0	-0.49672508
143	0xbf0f94de	-0.5608653
144	0x3ecc21e3	0.39869604
145	0xbea77309	-0.32704952
146	0x3e6d6007	0.23181163
147	0xbdcf8dc6	-0.10134463
148	0xbe83dda0	-0.25755024
149	0xbd445fa8	-0.047942787
150	0xbdbfa59d	-0.0935776
151	0xbf121d7d	-0.57076246
152	0x3f116ca9	0.5680643
153	0x3f23f58c	0.6404655
154	0xbe09b8d6	-0.13449416
155	0x3f0839c3	0.5321314
156	0xbe034dbc	-0.12822622
157	0xbe96b6b1	-0.29436257
158	0xbea5becf	-0.32372138
159	0xbeeb3e72	-0.4594608
160	0xbeb9a9c1	-0.36262324
161	0xbf0dc8dd	-0.5538462
162	0xbf602dfd	-0.8757017
163	0x3e384be3	0.17997698
164	0xbe11cc94	-0.14238197
165	0xbd9a69d3	-0.075397156
166	0xbefb941d	-0.4913644
167	0xbece20a1	-0.4025927
168	0xbf094d86	-0.53633916
169	0xbd52d196	-0.051469408
170	0xbca1cb9a	-0.019750405
171	0x3ec3dea5	0.38255802
172	0x3eac8158	0.3369243
173	0xbe303b2a	-0.1721007
174	0x3db5fcba	0.088860944
175	0xbe2bcecb	-0.16778104
176	0x3ec17400	0.37783813
177	0x3d6b3ae7	0.05742922
178	0x3d63ef93	0.055648398
179	0xbdb9ebd8	-0.09078187
180	0xbcf4957f	-0.029856442
181	0xbee58bfe	-0.44833368
182	0x3f2f5498	0.68488455
183	0xbf289271	-0.6584845
184	0xbe16e135	-0.14734347
185	0x3f5b6441	0.8569985
186	0x3f17d5a5	0.5931037
187	0x3f45dedc	0.7729318
188	0x3df0ec2c	0.11763796
189	0xbee23acd	-0.44185486
190	0x3d0644c6	0.03278043
191	0xbf4f2b33	-0.8092529
192	0x3e92a85a	0.28644067
193	0xbe37ad93	-0.17937307
194	0x3cec2622	0.028826777
195	0x3e82ff58	0.25585437
196	0x3f011541	0.50423056
197	0x3e48ef84	0.19622618
198	0x3e2d4f62	0.16924813
199	0x3e0d8a99	0.13822402
200	0xbe5a25e4	-0.21303517
201	0x3e54db75	0.20786841
202	0x3e20d191	0.15704943
203	0x3edc1a5b	0.42988858
204	0xbe0e9360	-0.13923407
205	0xbd261bd8	-0.040553898
206	0x3e14abdb	0.14518683
207	0x3ea505c7	0.3223097
208	0xbe901283	-0.28139123
209	0x3f09d082	0.5383378
210	0xbd03bbd0	-0.032161534
211	0x3e6d7401	0.23188783
212	0x3e5a9f50	0.21349835
213	0x3d763387	0.060107734
214	0xbf00bf91	-0.5029231
215	0xbeb931d1	-0.3617082
216	0xbed39d1d	-0.41330805
217	0xbe21e484	-0.15809828
218	0xbefe4c0f	-0.49667403
219	0xbe294a65	-0.16532286
220	0x3df487c9	0.119399615
221	0xbe8f0c5a	-0.2793911
222	0x3e95fbe7	0.2929375
223	0xbf5957af	-0.8489942
224	0x3ee000a3	0.43750486
225	0x3e502ab2	0.20328787
226	0xbe95db5a	-0.29268914
227	0xbcfe3e46	-0.031035554
228	0xbe040d93	-0.12895803
229	0x3edc72b7	0.4305627
230	0x3f308084	0.689461
231	0x3e1f347d	0.15547366
232	0x3e058055	0.13037236
233	0xbd31a1d9	-0.04336724
234	0x3ebecd90	0.37266207
235	0xbf409d39	-0.752399
236	0xbca21c98	-0.019789025
237	0x3d858411	0.0651933
238	0xbf024ba3	-0.5089666
239	0xbf0da07a	-0.5532299
240	0xbe96e9cd	-0.2947525
241	0xbcdbd32b	-0.026834091
242	0xbf4bb9ee	-0.7958058
243	0xbf50280e	-0.8131112
244	0x3e0e7f18	0.1391567
245	0x3cd6efd0	0.026237398
246	0xbe732e60	-0.2374816
247	0x3e846e82	0.2586556
248	0x3ec7f340	0.39052773
249	0x3d2353f6	0.039874993
250	0xbe87994e	-0.2648415
251	0x3c106b73	0.00881468
252	0x3f305e74	0.68894124
253	0x3f35c7cc	0.7100799
254	0xbe5f9a40	-0.21836185
255	0x3f1bd3fb	0.6087033

sur.rW f4 [100, 100]
0	0x3f2ab42e	0.6668118
1	0xbdc22d9c	-0.094813555
2	0x3d183cf9	0.037167523
3	0xbe21973c	-0.15780348
4	0xbed90cf6	-0.423927
5	0xbe69f610	-0.22847772
6	0xbe5caafb	-0.21549599
7	0xbf15efba	-0.5856892
8	0x3f277af0	0.6542196
9	0xbf595ae7	-0.8490433
10	0x3e8d3211	0.2757726
11	0x3e00be8f	0.12572692
12	0x3e723091	0.23651339
13	0xbeade93e	-0.33967012
14	0x3e6c6a9c	0.23087543
15	0xbc1dda90	-0.009634629
16	0x3e7d96f9	0.24764623
17	0xbe98ef30	-0.29869986
18	0xbf62806b	-0.884772
19	0xbe301ec1	-0.17199232
20	0x3e3078e1	0.17233612
21	0x3efdbbc1	0.49557307
22	0xbc0bed32	-0.0085404385
23	0xbd43ceb7	-0.04780456
24	0x3e84c593	0.25931987
25	0xbe6e7961	-0.2328849
26	0x3ee89751	0.45427945
27	0xbe8fbdc9	-0.28074482
28	0x3f2b04fd	0.66804487
29	0xbe047052	-0.12933472
30	0x3e799637	0.24373709
31	0xbeb22af8	-0.34798408
32	0x3dbaba01	0.09117509
33	0x3eec5d83	0.46165094
34	0xbe8a1c38	-0.26974654
35	0xbe89fdf1	-0.26951554
36	0xbe1de6c5	-0.15420063
37	0x3e884644	0.26616108
38	0xbe916d2b	-0.284036
39	0x3f4f4b76	0.8097452
40	0x3e78c22a	0.24292818
41	0xbf06ed5f	-0.5270595
42	0x3e501773	0.20321445
43	0x3f0d710d	0.55250627
44	0xbf0f483f	-0.55969614
45	0xbeecdf73	-0.46264228
46	0xbdfc284f	-0.12312376
47	0xbd37f91a	-0.044915296
48	0x3f08a50e	0.53376853
49	0xbd3b79a9	-0.04577032
50	0x3ea5f22a	0.3241132
51	0x3c563d65	0.013076161
52	0xbed56660	-0.41679668
53	0xbe24b293	-0.16083746
54	0xbe129caa	-0.14317575
55	0xbe981201	-0.29701236
56	0x3e8887db	0.2666615
57	0xbdd24e4b	-0.102688394
58	0x3d1f5b9f	0.038905736
59	0xbead628d	-0.3386425
60	0x3f6fc3a1	0.9365788
61	0xba99f9c8	-0.0011747414
62	0xbe7ebedb	-0.24877493
63	0xbebc3177	-0.3675649
64	0xbf466758	-0.7750144
65	0x3ea5a438	0.3235185
66	0xbe9f6216	-0.3112952
67	0x3efe4e0e	0.49668926
68	0x3be8bdec	0.0071027186
69	0xbe4dbf54	-0.20092517
70	0x3d39258a	0.045201816
71	0x3e1689a9	0.1470095
72	0x3d2be1a4	0.041963235
73	0x3d296c34	0.041362956
74	0x3debfe94	0.11523166
75	0xbe15718d	-0.14594097
76	0xbd6bc7a6	-0.057563446
77	0x3f1e37d1	0.6180392
78	0xbe8efe5f	-0.27928445
79	0x3da2e36f	0.07953536
80	0xbf28ea3d	-0.6598242
81	0xbed68626	-0.41899222
82	0xbe0d0aad	-0.13773604
83	0x3e90e086	0.28296298
84	0x3ec40cbb	0.38290963
85	0x3e990245	0.29884544
86	0xbea8de8f	-0.329823
87	0x3e27a7e6	0.16372642
88	0x3df21226	0.11819868
89	0x3c80a019	0.01570134
90	0x3dd1a164	0.10235861
91	0xbef25ce0	-0.47336483
92	0x3ef2b582	0.47404104
93	0x3f1dd162	0.6164762
94	0xbc79e28a	-0.015251765
95	0x3f09e197	0.5385985
96	0x3ddd2ddb	0.10799762
97	0x3e848e61	0.25889876
98	0xbded4168	-0.11584741
99	0xbe07a2ac	-0.13245648
100	0x3d95e7aa	0.07319577
101	0x3f493449	0.78595406
102	0xbea63913	-0.3246542
103	0x3eebfa1e	0.46089262
104	0x3e8cf429	0.2753003
105	0x3ec4d0ad	0.38440457
106	0xbe97c37e	-0.29641336
107	0xbc924c41	-0.017858626
108	0xbf1c1033	-0.6096222
109	0x3d9e362f	0.077251785
110	0xbf03fa48	-0.51553774
111	0xbdea64a6	-0.114449784
112	0x3e46992c	0.19394368
113	0xbe3701d7	-0.17871796
114	0xbe37cec7	-0.17949973
115	0xbf0cbce4	-0.54975724
116	0x3e339419	0.17536964
117	0x3f38787a	0.7205883
118	0x3f3a5063	0.7277891
119	0x3f4e11f5	0.8049615
120	0x3e32209c	0.17395252
121	0xbed33649	-0.41252354
122	0xbf0533e7	-0.5203232
123	0x3f08c166	0.534201
124	0xbf4f1bfd	-0.8090208
125	0x3deb8509	0.11499984
126	0xbf30b114	-0.690202
127	0xbeb19a77	-0.3468816
128	0xbbbaeeb6	-0.005704726
129	0x3eb84838	0.359926
130	0xbea49af5	-0.32149473
131	0xbebc83ea	-0.36819392
132	0x3d3ded1a	0.046368696
133	0xbf5a148a	-0.8518759
134	0xbde47ee0	-0.11157012
135	0x3ed48d87	0.41514227
136	0x3f43ae71	0.7643805
137	0xbe9ccf32	-0.30626827
138	0x3ece4362	0.40285784
139	0xbe666d7b	-0.22502701
140	0x3f042811	0.51623636
141	0x3dc46be2	0.095908895
142	0xbf21a61d	-0.63144094
143	0x3d60d2f7	0.05488869
144	0x3ebe570b	0.37175784
145	0xbe38e1ca	-0.18054882
146	0x3f4b3102	0.79371655
147	0xbd456c9f	-0.048199292
148	0xbf68cd43	-0.90938205
149	0x3f250e7a	0.64475214
150	0x3f15409f	0.5830173
151	0x3f415e5d	0.7553461
152	0x3dba9400	0.0911026
153	0x3ee15da7	0.44016764
154	0x3e0a9b8b	0.13535897
155	0xbea6bddf	-0.32566735
156	0xbeff86a2	-0.49907404
157	0x3c007fee	0.007843001
158	0x3e92c76c	0.28667772
159	0x3eb3b7b2	0.35101086
160	0xbe8635f9	-0.26213053
161	0xbe483cb3	-0.19554405
162	0xbe8e8a64	-0.2783996
163	0xbee9bad0	-0.4565034
164	0xbe4a02da	-0.1972765
165	0xbe396149	-0.18103518
166	0xbebe714f	-0.37195823
167	0xbec2c187	-0.38038275
168	0xbf1df611	-0.6170359
169	0x3e9891f2	0.29798847
170	0x3e2aaf3c	0.16668409
171	0xbd7d86e8	-0.061896235
172	0xbdeee2a3	-0.11664321
173	0xbf21d974	-0.6322243
174	0xbe874e04	-0.2642671
175	0x3d28af0f	0.041182574
176	0x3ebcfb42	0.36910444
177	0xbf53fab6	-0.8280443
178	0xbdd5d170	-0.10440338
179	0xbedf76cb	-0.4364532
180	0x3eb8a021	0.3605967
181	0x3f0f2b1c	0.55925155
182	0xbeee6bd1	-0.46566632
183	0xbf264289	-0.64945275
184	0xbedc20b9	-0.42993715
185	0xbec29789	-0.38006237
186	0x3e08d9b2	0.13364294
187	0x3f5aeab2	0.85514367
188	0x3e15da78	0.1463412
189	0x3f0df458	0.55450964
190	0x3f0f382c	0.55945086
191	0xbf5cdbff	-0.8627319
192	0xbebbfec1	-0.367178
193	0x3e9676b3	0.29387435
194	0xbbd33510	-0.0064455345
195	0x3e821bf3	0.2541195
196	0x3ec48df9	0.38389567
197	0xba9000f2	-0.001098661
198	0xbca0597b	-0.019573918
199	0x3f0e15dc	0.55502105
200	0x3ea1fc7d	0.31637946
201	0xbf029649	-0.51010567
202	0x3f1e91bc	0.61941123
203	0x3f3f2c8a	0.74677336
204	0xbe94400b	-0.2895511
205	0xbea45d37	-0.32102367
206	0xbe23892f	-0.159703
207	0xbe228a8d	-0.15873165
208	0xbe5513c2	-0.20808318
209	0x3e12063c	0.1426019
210	0xbecca52f	-0.39969775
211	0x3e96f25b	0.29481778
212	0x3da1c0b0	0.0789808
213	0x3dedf6ec	0.11619362
214	0xbed216a8	-0.4103291
215	0xbf24026d	-0.640662
216	0x3de260a2	0.110535875
217	0x3f8eb23a	1.114814
218	0x3e3e30bc	0.18573278
219	0xbf139a32	-0.5765716
220	0x3e5b34d0	0.21406865
221	0xbe955689	-0.29167584
222	0x3e7da10a	0.24768463
223	0x3dddc070	0.1082772
224	0xbceee2e7	-0.02916093
225	0xbd206e58	-0.039167732
226	0x3e71f9a7	0.23630391
227	0xbc4f4a15	-0.01265194
228	0x3e1dfaa1	0.15427639
229	0xbeca559e	-0.39518446
230	0x3f367f9c	0.71288466
231	0xbe65833e	-0.22413346
232	0xbdabc31a	-0.08386822
233	0x3d34e03d	0.044159163
234	0xbf8a834c	-1.0821319
235	0xbe1310a9	-0.14361824
236	0x3e9bfc3c	0.30465877
237	0xbf443ffe	-0.76660144
238	0xbe1c0f9d	-0.15240331
239	0x3f04a343	0.5181162
240	0xbd789514	-0.060689047
241	0xbb174015	-0.0023078967
242	0x3e569304	0.2095452
243	0x3e7d1b24	0.24717385
244	0xbf23c89e	-0.6397799
245	0x3ebe867d	0.3721198
246	0xbea492ff	-0.321434
247	0x3e6c84f8	0.23097599
248	0xbeb9026b	-0.36134657
249	0xbe5a4f1f	-0.21319245
250	0xbe80928a	-0.251118
251	0x3dece9e8	0.115680516
252	0xbe4d21ad	-0.20032378
253	0xbc1ca542	-0.009560885
254	0x3f0309d4	0.5118687
255	0xbe95c6b0	-0.2925315

sur.charcnn.char_emb.weight f4 [101, 100]
0	0xbfe2acb7	-1.7708958
1	0xbfb60c0d	-1.4222428
2	0xbf13a51e	-0.57673824
3	0xbedabaf5	-0.42720762
4	0x3f1be79e	0.60900295
5	0x3f3f77b9	0.7479206
6	0xbecd6eb6	-0.40123528
7	0xc00784aa	-2.1174722
8	0x3ea27140	0.31727028
9	0xbfe68e53	-1.8012184
10	0x3f42b8c4	0.7606318
11	0x3e4d0d37	0.20024572
12	0x3f121d51	0.57075983
13	0x3fc55eb4	1.5419526
14	0x3fc3944e	1.5279634
15	0x3d95121e	0.07278846
16	0xbfeed345	-1.8658224
17	0xbfdcb2f0	-1.7242107
18	0x3f1cd4c0	0.6126213
19	0x3f95cec4	1.1703725
20	0x3edff127	0.43738672
21	0xc00fbef0	-2.246029
22	0xbf096a65	-0.5367797
23	0x402f866a	2.742579
24	0x3f46fa0a	0.7772528
25	0xbf3c2b17	-0.7350325
26	0xbef279bc	-0.473585
27	0x3efeceb5	0.4976708
28	0x3fdfca3b	1.7483591
29	0x3fe5394d	1.7908112
30	0x3f830767	1.0236634
31	0xbee4e81b	-0.44708332
32	0xbf045ad3	-0.51701087
33	0xbdf2ee1d	-0.11861823
34	0xbf057d5e	-0.5214442
35	0x3f1ca08e	0.61182487
36	0x3f0c2690	0.5474634
37	0x3e955a61	0.29170516
38	0x3ea1c896	0.31598347
39	0x3f1ee06c	0.6206119
40	0x3ef27102	0.47351843
41	0x3f896792	1.0734732
42	0xbf2488ed	-0.6427143
43	0xbdf4b81f	-0.11949181
44	0x3f321ff9	0.69580036
45	0x402a9863	2.665551
46	0xbfad6132	-1.3545287
47	0xbfe5a814	-1.7941918
48	0xbf9b612b	-1.2139028
49	0x3f5b6e34	0.8571503
50	0x3f9b96c2	1.2155383
51	0xbe35514f	-0.17706798
52	0xbf19e346	-0.60112417
53	0xbf488af0	-0.78337
54	0x3f07520e	0.5285958
55	0xbf3ac591	-0.7295771
56	0xbf83a63c	-1.0285106
57	0x3f9e90a9	1.2387897
58	0x3fb29261	1.3950921
59	0x4063cc95	3.5593617
60	0xbfe81d44	-1.8133931
61	0xbfa7b3b0	-1.3101711
62	0x40148f19	2.321234
63	0xbf648e5f	-0.8927974
64	0xbf4a0252	-0.7890979
65	0x3f5f9673	0.8733894
66	0x3fbbd6be	1.4674909
67	0x3fc42edd	1.5326802
68	0xbfdc90b7	-1.7231663
69	0x4031b517	2.7766778
70	0xbf815931	-1.0105344
71	0x3db23130	0.08700788
72	0xbfcc2da8	-1.5951433
73	0xbd414d0e	-0.047192626
74	0xbda74a5f	-0.08168482
75	0xbd3bf5d3	-0.045888733
76	0xbf72b9de	-0.9481486
77	0x3fb9a1a4	1.4502454
78	0xbe0931f9	-0.1339797
79	0x3faea910	1.3645344
80	0x3c20ccc9	0.00981445
81	0x3f318a4f	0.6935167
82	0xbf599d6f	-0.8500585
83	0xbb1613bc	-0.0022899946
84	0x3fc18c1a	1.5120881
85	0xbf4e5133	-0.8059265
86	0x3fcf4599	1.6193115
87	0x3f8b6b7a	1.0892174
88	0x3ec4c495	0.3843123
89	0x402141c4	2.519639
90	0xc01d4321	-2.4572222
91	0xbf0a6abe	-0.54069126
92	0xbfd22fc4	-1.6420827
93	0xbf81e632	-1.0148375
94	0x3df76cf6	0.120813295
95	0x3fa37a47	1.2771691
96	0x3fdbeedc	1.7182269
97	0xbfe9ccb3	-1.8265594
98	0x3e382305	0.17982109
99	0x3f6d348b	0.926583
100	0xc03b4a2b	-2.9264019
101	0xbfea5548	-1.8307276
102	0xbe04a942	-0.12955192
103	0x3c1b758d	0.0094884755
104	0x3eaa00bf	0.33203694
105	0xbe4f365b	-0.20235579
106	0x3e71435c	0.23560852
107	0x3da5c994	0.080950886
108	0x3f3a8540	0.72859573
109	0xbfb597ae	-1.4186914
110	0x3fdd68a1	1.7297555
111	0xbf808450	-1.0040379
112	0xbf2074ab	-0.6267802
113	0xc0442ddf	-3.0652997
114	0x3dcbb908	0.09947401
115	0x3e496be3	0.19670062
116	0x3f9f3904	1.2439275
117	0x3f41825d	0.75589544
118	0xbf5f9efd	-0.8735197
119	0xbdeab213	-0.11459746
120	0xbed3d6db	-0.4137486
121	0xbf3e6701	-0.7437592
122	0x4025b34b	2.5890682
123	0xbf3e7a36	-0.7440523
124	0xbd4fd86d	-0.05074351
125	0x3febd4b3	1.8424286
126	0x3f6437e4	0.8914778
127	0x4001f4dd	2.0305703
128	0xbf9f7843	-1.2458576
129	0xbe0cf848	-0.13766587
130	0xbf7f1ca1	-0.9965306
131	0x3f31371d	0.6922472
132	0x3f22cbfe	0.6359252
133	0x3f147b2e	0.5800046
134	0x4006b9b5	2.1050847
135	0xbfbbfa80	-1.4685822
136	0xbe357447	-0.17720138
137	0x3f2c7ee7	0.6738114
138	0xbf09a752	-0.53770936
139	0xbfa44a2d	-1.2835137
140	0xbe907af2	-0.282188
141	0xbf690348	-0.9102063
142	0xbe769931	-0.24081875
143	0x3cf2c602	0.029635433
144	0xbec3fdab	-0.3827947
145	0x3edeb25d	0.43495455
146	0xbdd5affa	-0.104339555
147	0x3f74bd12	0.95601
148	0x3ebe55c1	0.371748
149	0x3e9c80d5	0.3056704
150	0xbe4de471	-0.20106675
151	0xbea23dbe	-0.3168773
152	0x3ef5066f	0.4785647
153	0xbf7c1ed7	-0.9848456
154	0xc0012c3d	-2.018325
155	0x3e998c17	0.29989693
156	0xbf3bce22	-0.7336141
157	0x3f0541ef	0.5205373
158	0x3e0b680a	0.13613907
159	0x3f2ea26c	0.68216586
160	0x3f74e51c	0.95662093
161	0xbfc41373	-1.5318435
162	0x3eb09b2d	0.3449339
163	0x39c7d486	0.0003811458
164	0x3fa26565	1.2687193
165	0xbe571ed7	-0.21007858
166	0x3f961aea	1.1726964
167	0x3f15d75f	0.58531755
168	0x3f087bb5	0.5331376
169	0xbdcbbcdc	-0.099481314
170	0xbd8e414d	-0.06946049
171	0x3f40b34d	0.7527359
172	0xbf1d6c07	-0.6149296
173	0xbfb7b8e6	-1.4353302
174	0xbecff8c6	-0.40619487
175	0xbffdbb6a	-1.9822819
176	0xbf0e9bd9	-0.55706555
177	0xbdd14d1d	-0.10219786
178	0xc0042631	-2.064831
179	0xbf89bd62	-1.076092
180	0x3fbe0bb5	1.4847323
181	0x3ecb374d	0.3969063
182	0x4005b1af	2.08897
183	0x3faca36a	1.348737
184	0xbfc5efde	-1.5463827
185	0xbf80a346	-1.0049827
186	0x40047db1	2.0701716
187	0x3e03ccae	0.12871048
188	0x3f6dab68	0.9283967
189	0xbfa05584	-1.2526097
190	0xbfabcd44	-1.3422017
191	0xbfe7cb2d	-1.8108879
192	0xbf7cfc7d	-0.98822767
193	0x3ecf476b	0.40484175
194	0x3e880cf2	0.26572376
195	0x3ea8472b	0.32866797
196	0x3e470957	0.19437157
197	0x3f5f4d40	0.8722725
198	0xbe426131	-0.18982388
199	0x3fe2745a	1.7691758
200	0xbf0466cc	-0.51719356
201	0xbf944881	-1.1584626
202	0x3f1728ec	0.59046817
203	0x3ec046d1	0.3755403
204	0x3f206567	0.6265473
205	0xbfcba631	-1.5910093
206	0x3e7bd9e6	0.2459484
207	0xbeccbf99	-0.39989927
208	0x3fb0bb87	1.3807229
209	0xbec33a8a	-0.381306
210	0x4007a766	2.1195922
211	0x3f59c78e	0.8507012
212	0xbffc4bf2	-1.9710677
213	0x3f92e0da	1.1474869
214	0xbed47b67	-0.415004
215	0xbfb87b31	-1.4412595
216	0x3f6d3e98	0.92673635
217	0x3fdd5cf8	1.7293997
218	0xbf8b3f60	-1.0878716
219	0x3ee4ac45	0.4466268
220	0x3e95889f	0.29205796
221	0xbd979b12	-0.07402624
222	0xbf4c0e67	-0.79709476
223	0x3f2ec2e1	0.6826611
224	0xbf4d0d01	-0.8009797
225	0x4007a427	2.119394
226	0x3e917f00	0.28417206
227	0x3e1826b1	0.1485851
228	0xbe4cc74e	-0.19997904
229	0x3f6ed930	0.9330015
230	0xbedf0105	-0.43555465
231	0xbffe64ce	-1.9874513
232	0x3ebfc063	0.37451467
233	0xbf57018d	-0.8398674
234	0xbe45b1df	-0.19306134
235	0x3f5fa782	0.8736497
236	0xbfe0d2b5	-1.7564303
237	0x3faa917c	1.3325648
238	0x3fb5d6ae	1.420614
239	0xc002046d	-2.0315201
240	0xbf814cc7	-1.0101556
241	0xbfd772ae	-1.6831872
242	0xbe6884f3	-0.22706966
243	0xbff1413e	-1.8848035
244	0x4005e8bc	2.09233
245	0xbce9b3ef	-0.028528182
246	0x3eba2d54	0.36362708
247	0xbf6a00e9	-0.9140764
248	0xbd04ef91	-0.03245503
249	0x3f9966a7	1.1984452
250	0x3f9933b0	1.1968899
251	0xbf886b1f	-1.0657691
252	0xbf5634d4	-0.8367436
253	0x3eeaa103	0.45825967
254	0x3fe98045	1.824227
255	0x3f936a0e	1.151674

sur.charcnn.convs.0.0.weight f4 [100, 100, 1]
0	0x3cb4adee	0.022055592
1	0xbc9cb5b5	-0.019129613
2	0xbd2a1cad	-0.041531254
3	0xbd3b4caa	-0.04572741
4	0x3dd6a3bb	0.10480448
5	0xbd68c86f	-0.056831773
6	0x3e05e0e7	0.13074075
7	0x3a644e38	0.0008709165
8	0x3d0262c9	0.03183249
9	0x3e02d03d	0.12774749
10	0xbd8faea6	-0.070157334
11	0xbd2fa9af	-0.042886432
12	0xbcbd10a0	-0.023079216
13	0xbb90fead	-0.004424891
14	0xb8d564c4	-0.000101754005
15	0xbdadd016	-0.08486955
16	0x3b6d05ed	0.0036166862
17	0x3c688176	0.014191022
18	0xbc9103db	-0.017702034
19	0xbdf08935	-0.1174492
20	0x3c231360	0.00995335
21	0xbdbe4b30	-0.09291685
22	0x3d85140d	0.06497965
23	0xbdf9b59c	-0.12192842
24	0x3ad43091	0.001618879
25	0x3d8d5276	0.06900494
26	0x3c14b11f	0.009075432
27	0xbdfea7ad	-0.12434325
28	0xbd26a23e	-0.04068207
29	0x3d8b35f1	0.06797398
30	0x3b5a78de	0.0033336203
31	0x3db481c6	0.08813815
32	0x3c611f16	0.013740322
33	0xbd39578a	-0.0452495
34	0xbd8f33ad	-0.06992278
35	0xbc9ee530	-0.019396394
36	0x3dad73e1	0.08469368
37	0xbdcc3769	-0.09971506
38	0xbdf1a902	-0.11799814
39	0x3cc0809f	0.023498831
40	0xbde07566	-0.10959892
41	0xbcbcff55	-0.02307097
42	0x3da6cdae	0.08144699
43	0x3c03978f	0.00803174
44	0x3c086670	0.008325204
45	0xbda2a31e	-0.079412684
46	0x3d83a58e	0.064280614
47	0x3d82f083	0.0639353
48	0x3e0ce753	0.13760118
49	0x3d2c955a	0.04213462
50	0x3cdd48a1	0.027012171
51	0x3e2d001b	0.16894571
52	0x3c0323a5	0.008004104
53	0x3df61400	0.120155334
54	0x3cd859e0	0.026410043
55	0x3cd0ee44	0.025504239
56	0x3e2f170e	0.17098638
57	0xbdb0433f	-0.08606576
58	0x3e1c4607	0.15261088
59	0x3e0385b4	0.12843972
60	0x3d0b68e5	0.034035582
61	0xbdd6da2c	-0.10490832
62	0xbd47bd38	-0.048764437
63	0x3d52121e	0.05128681
64	0xbdcf6402	-0.10126497
65	0x3d84c509	0.06482894
66	0x3d6d73de	0.057971828
67	0x3dce830e	0.100835904
68	0x3cac8013	0.021057164
69	0x3dbe4f09	0.092924185
70	0x3d84129a	0.064488605
71	0x3db1c114	0.08679405
72	0xbbedd636	-0.007258202
73	0x3a62f16e	0.00086571916
74	0x3d6250f3	0.05525298
75	0xbd37ed99	-0.044904325
76	0xbb329b91	-0.002725337
77	0x3d7835e2	0.06059826
78	0x3d2faa77	0.042887177
79	0xbdcb333e	-0.09921883
80	0xbdd73bcd	-0.10509453
81	0x3dd2711b	0.102754794
82	0x3c9fd9ce	0.019513037
83	0x3cd4f8cf	0.025997547
84	0x3c88e45b	0.01671045
85	0xbd87ecb5	-0.06636945
86	0xbdb5fe62	-0.0888641
87	0xbc24eb9e	-0.010065941
88	0x3cf59ebe	0.02998292
89	0xbdb992be	-0.09061192
90	0x3e0acd5c	0.13554901
91	0xbc772621	-0.015084774
92	0x3bc018ab	0.0058623157
93	0xbdc11150	-0.0942713
94	0x3b16a97e	0.0022989209
95	0x3d2356a0	0.039877534
96	0x3d69d77a	0.05709026
97	0xbdb6cf3a	-0.08926244
98	0xbcde078a	-0.027103204
99	0xbcd6b5a9	-0.02620967
100	0xbd6c8c9d	-0.057751287
101	0xbd2dd54d	-0.042439748
102	0xbdbadd6e	-0.091242656
103	0xbd176115	-0.03695782
104	0x3c811643	0.015757686
105	0x3d9e780c	0.07737741
106	0xbd199777	-0.037497964
107	0x3d15ae76	0.036543332
108	0xbd4d381e	-0.050102346
109	0xbd358635	-0.044317443
110	0xbd6cabf2	-0.057781167
111	0x3dc9ad38	0.09847492
112	0xbd8593d0	-0.065223336
113	0xbd6bc9b4	-0.057565406
114	0xbd66216c	-0.056184217
115	0xbc29a4b4	-0.01035421
116	0x3d099885	0.03359272
117	0xbd0662bf	-0.032809015
118	0x3d2dca47	0.042429235
119	0xbd5ce6cc	-0.053931043
120	0x3d15143f	0.03639626
121	0x3bf60894	0.007508347
122	0x3c0f124a	0.008732388
123	0x3cb0b2f0	0.021569699
124	0xbcb37123	-0.021904534
125	0x3d3d3f0b	0.0462027
126	0x3ca9bb12	0.020719085
127	0xbdb9d409	-0.090736456
128	0x3da278da	0.07933207
129	0xbdc8e98f	-0.09810173
130	0xbdb52db5	-0.088466085
131	0xbd5e56f7	-0.054282155
132	0xbcb4fe7e	-0.022094008
133	0xbc1cbfff	-0.00956726
134	0x3ccfb0b5	0.025352815
135	0x3d3671d9	0.044542167
136	0x3cdb53bf	0.026773332
137	0xbdc0577d	-0.09391687
138	0xbc42f9fa	-0.011900419
139	0xbcc03eaf	-0.02346739
140	0xbd5bc12f	-0.05365103
141	0xbc1d7b34	-0.009611893
142	0x3de73551	0.11289466
143	0xbb6cf39b	-0.0036155942
144	0xbd6e010f	-0.05810648
145	0xbb397c19	-0.0028302728
146	0xbdbc1a73	-0.09184732
147	0xbdb1c917	-0.08680933
148	0xbc01b3bd	-0.007916388
149	0xbe0fd123	-0.14044623
150	0x3d06c83f	0.032905813
151	0x3e24b9b0	0.16086459
152	0x3dec309d	0.1153271
153	0xbd40a845	-0.047035474
154	0x3d6a4c73	0.057201814
155	0xbde09215	-0.10965363
156	0x3ca993be	0.020700332
157	0xbd459df2	-0.04824633
158	0x3dbd45ba	0.09241815
159	0xbdfbb638	-0.12290615
160	0x3df52566	0.11970024
161	0xbc379bd0	-0.011206582
162	0xbd1c1d55	-0.03811391
163	0xbc8fef07	-0.017570032
164	0xbd75bdbd	-0.0599954
165	0xbe2fa167	-0.17151414
166	0x3de0047d	0.10938356
167	0x3dd51bfa	0.10405727
168	0x3d4f8972	0.050668187
169	0xbc81c66f	-0.01584169
170	0x3d13a44c	0.036045358
171	0xbd26624f	-0.040621098
172	0xbd72fd54	-0.059323624
173	0x3c25ffd5	0.010131796
174	0xbe0cbd43	-0.13744073
175	0xbd878a54	-0.06618181
176	0xbe0d52f6	-0.13801178
177	0xbc422680	-0.011849999
178	0x3b4643c6	0.0030252798
179	0xbc60590e	-0.013693107
180	0x3d4daeb5	0.05021544
181	0x3c922be7	0.0178432
182	0xbcefed2a	-0.029287893
183	0x3c77f312	0.015133636
184	0x3d1df2ce	0.038561635
185	0xbd05b8f3	-0.032647084
186	0xbdd0c3e1	-0.10193611
187	0x3cefd754	0.029277481
188	0xbd71b880	-0.059013844
189	0x3d9a8412	0.07544722
190	0x3c6e097f	0.014528631
191	0x3d86c4a5	0.06580476
192	0xbcdf993f	-0.027294753
193	0x3d791576	0.060811482
194	0xbe42b7bf	-0.19015406
195	0x3d369c77	0.04458281
196	0x3daa1997	0.08305662
197	0x3cdb9bd5	0.026807705
198	0x3d0bd572	0.034139104
199	0x3d1e948d	0.038715888
200	0x3ce71478	0.028208002
201	0xbd308d0c	-0.043103263
202	0x3c559874	0.013036836
203	0x3de3a83e	0.11116074
204	0xbcc241f5	-0.023713091
205	0x3d44e368	0.048068434
206	0xbd563161	-0.052293185
207	0xbddb940b	-0.10721596
208	0xbdb6086e	-0.088883266
209	0x3d7f563f	0.06233811
210	0x3c8119c7	0.015759362
211	0xbd92ec03	-0.07173922
212	0x3ccc4adc	0.02493804
213	0x3cbb085e	0.022831138
214	0x3d8360c2	0.064149395
215	0x3d05fbc9	0.032710824
216	0xbd2aa11e	-0.04165756
217	0x3bfa93f6	0.007647033
218	0x3e000d3f	0.12505053
219	0x3df9ebf7	0.1220321
220	0x3ce1c535	0.027559856
221	0x3cd66736	0.026172262
222	0x3d51bafc	0.051203713
223	0xbd303a4b	-0.043024343
224	0x3d5c82e9	0.053835783
225	0xbcaa291c	-0.020771556
226	0xbd44bc75	-0.04803129
227	0xbd11a55d	-0.035558093
228	0x3d8a75f2	0.067607775
229	0xbe302231	-0.17200543
230	0x3d24e9b3	0.040261935
231	0xbdb7a8ce	-0.08967744
232	0xbc94462f	-0.018099872
233	0xbcd5779f	-0.026058016
234	0x3c8909ae	0.016728248
235	0x3cf037d6	0.0293235
236	0xbd9d5dc2	-0.076838985
237	0xbcec38e1	-0.028835716
238	0x3c5315fe	0.012883661
239	0x3d84a7ca	0.06477316
240	0xbc8e0095	-0.017334262
241	0xbd165a37	-0.03670713
242	0x3c0a76f6	0.008451214
243	0xbd279093	-0.04090936
244	0xbdab2e8e	-0.08358489
245	0x3d95b0a2	0.07309081
246	0xbdaac1a0	-0.08337712
247	0x3dc63772	0.09678544
248	0x3df271a5	0.11838082
249	0x3da9e974	0.08296481
250	0xbbe7f222	-0.007078425
251	0x3c794ccf	0.0152160665
252	0x3d97dc64	0.07415083
253	0xbe014191	-0.12622668
254	0x3dc40272	0.09570779
255	0xbb5d2da3	-0.0033749125

sur.charcnn.convs.0.0.bias f4 [100]
0	0xbd183527	-0.037160065
1	0xbe223e4a	-0.15844074
2	0xbe3d1268	-0.18464053
3	0xbe060239	-0.13086785
4	0xbdc133e7	-0.09433728
5	0xbe0785ba	-0.13234606
6	0xbd83b608	-0.06431204
7	0xbda5bdae	-0.08092819
8	0xbe4e1c77	-0.20128046
9	0xbdb51452	-0.088417664
10	0xbdb44c94	-0.088036686
11	0xbc076722	-0.008264335
12	0xbd32d972	-0.043664403
13	0xbe1dbd91	-0.15404345
14	0xbdc9f58e	-0.09861289
15	0xbda7777a	-0.08177085
16	0xbe1c1e90	-0.15246034
17	0xbdbbd301	-0.09171105
18	0xbdc6fb27	-0.09715872
19	0xbe0e35ae	-0.13887665
20	0xbe3e51af	-0.18585847
21	0xbcc1ca78	-0.023656115
22	0xbd8d44c4	-0.068978816
23	0xbd1df044	-0.038559213
24	0xbd728a5f	-0.059213992
25	0xbdc22e1d	-0.09481452
26	0xbca63882	-0.020290617
27	0xbd478fcd	-0.048721123
28	0xbdfc74d2	-0.12326969
29	0xbdfa65a7	-0.1222642
30	0xbe44fd25	-0.19237192
31	0xbdd709a2	-0.10499884
32	0xbe4297a6	-0.19003162
33	0xbcf8644b	-0.03032126
34	0xbe352b1a	-0.17692223
35	0xbd722982	-0.059121616
36	0xbe3f3a1a	-0.18674508
37	0xbe090f40	-0.13384724
38	0xbe098a66	-0.13431701
39	0xbe03ace4	-0.12858921
40	0xbdf83879	-0.12120146
41	0xbe071c50	-0.13194394
42	0xbe1f194f	-0.15536998
43	0xbe19c60e	-0.15016958
44	0xbdfb13f8	-0.12259668
45	0xbe2ff854	-0.17184573
46	0xbd4e0954	-0.050301865
47	0xbca232ae	-0.019799557
48	0xbdacc8e8	-0.08436757
49	0xbda52ed6	-0.08065574
50	0xbe26cd1e	-0.16289183
51	0xbd97c970	-0.07411468
52	0xbe2926c9	-0.16518702
53	0xbd05a331	-0.032626335
54	0xbd73a3b4	-0.05948229
55	0xbdfc0ef4	-0.123075396
56	0xbdfa005b	-0.12207099
57	0xbd4a88bf	-0.049446817
58	0xbe2491af	-0.16071199
59	0xbdff9b78	-0.12480825
60	0xbdf9f5fc	-0.12205121
61	0xbe5c3aff	-0.2150688
62	0xbbbe85f8	-0.00581431
63	0xbdacc7e5	-0.08436564
64	0xbe284d5f	-0.16435765
65	0xbcd80b9e	-0.026372727
66	0xbe318df9	-0.17339315
67	0xbd991f27	-0.07476645
68	0xbe283286	-0.16425523
69	0xbd45f36f	-0.04832786
70	0xbe522ac7	-0.20524131
71	0xbd83115d	-0.06399796
72	0xbdb8b010	-0.09017956
73	0xbe172fd4	-0.14764339
74	0xbd6ab9e1	-0.057306174
75	0xbc1d51ee	-0.009602053
76	0xbd2d9d0d	-0.042386103
77	0xbb5d3165	-0.0033751365
78	0xbe23d25a	-0.15998212
79	0xbd1f25b0	-0.0388543
80	0xbde40c07	-0.111351065
81	0xbdc3d2b0	-0.0956167
82	0xbe2a6c65	-0.16642912
83	0xbdb02eb2	-0.086026564
84	0xbb6276be	-0.003455564
85	0xbe5451e0	-0.20734358
86	0xbe3b683c	-0.18301481
87	0x3d5f02b8	0.054445952
88	0xbe136f9f	-0.14398049
89	0xbdb854ce	-0.0900055
90	0xbe2f9a46	-0.17148694
91	0xbe06f130	-0.13177943
92	0xbe19dc2a	-0.15025392
93	0xbd886ccd	-0.06661377
94	0xbdfb9bc0	-0.12285566
95	0xbc510c3d	-0.0127592655
96	0xbd93baa1	-0.07213331
97	0xbd0c1012	-0.034195013
98	0xbe425cb6	-0.18980679
99	0xbd39e2e6	-0.045382403

sur.charcnn.convs.1.0.weight f4 [100, 100, 3]
0	0x3e1d5dee	0.15367863
1	0xbc4eef6b	-0.012630324
2	0x3cb83663	0.022486871
3	0xbd695989	-0.056970153
4	0xbc737dc5	-0.014861529
5	0xbd07a7e8	-0.033119112
6	0xbc905f5a	-0.017623592
7	0x3d75d61b	0.06001864
8	0x3d10deaf	0.035368618
9	0x3c4079fe	0.011747835
10	0xbdc69829	-0.09696991
11	0x3bfe96c6	0.0077694384
12	0xbe1ba477	-0.15199457
13	0x3d146849	0.036232267
14	0xbcc916d2	-0.024547014
15	0x3dd70c5f	0.105004065
16	0x3d45d2c8	0.04829672
17	0x3d7fea53	0.06247933
18	0x3da26583	0.07929518
19	0x3d78bf74	0.06072946
20	0xbe0aa2cd	-0.13538666
21	0xba65d51c	-0.00087674125
22	0xbd4fd613	-0.050741266
23	0xbd122b48	-0.035685807
24	0xbb8edfff	-0.0043601985
25	0x3c959aed	0.018262351
26	0xbdb87be9	-0.09008009
27	0x3dc880e2	0.097902074
28	0x3dc889ab	0.09791883
29	0x3dfa6e15	0.12228028
30	0xbbc1ed78	-0.005918201
31	0xbc5a1965	-0.013311719
32	0xbcdb93ea	-0.02680393
33	0x3e0271fe	0.12738797
34	0xbd350907	-0.044198062
35	0xbd8a5e2d	-0.06756244
36	0x3e1f86dd	0.1557879
37	0xbe06f20a	-0.13178268
38	0x3d94f87f	0.07273959
39	0xbd9a9815	-0.075485386
40	0xbd00b4a0	-0.031422257
41	0x3e0d5eaa	0.13805643
42	0x3de54bd6	0.11196105
43	0xbc7b84a3	-0.015351447
44	0x3dd3f475	0.10349361
45	0xbd8c6e7d	-0.068570115
46	0x3de8e9f5	0.11372749
47	0x3cee34a7	0.029077841
48	0xbde5e7aa	-0.11225827
49	0x3e12cde2	0.1433635
50	0x3e15ae88	0.1461736
51	0x3e25c8af	0.16189836
52	0x3d999a56	0.0750014
53	0x3d475aa7	0.048670437
54	0x3e2602e5	0.16212042
55	0xbdf0f795	-0.117659725
56	0xbd9d953b	-0.07694479
57	0x3dcbd3b0	0.099524856
58	0xbd8b2a3e	-0.067951664
59	0xbdb9e909	-0.09077651
60	0x3db00e0c	0.08596429
61	0x3e319984	0.17343718
62	0x3d27e79d	0.040992368
63	0xbd0edf9d	-0.034881223
64	0x3b8899f6	0.004168744
65	0x3e024db3	0.12724952
66	0xbd0102f1	-0.031496946
67	0x3e16646b	0.14686744
68	0xbe1aacbe	-0.15104958
69	0xbbc9f6e4	-0.006163465
70	0xbbdc9448	-0.0067315437
71	0xbdba5c49	-0.09099633
72	0xbb565b1c	-0.0032708114
73	0x3d57900d	0.052627612
74	0x3da32830	0.079666495
75	0xbe194677	-0.14968286
76	0x3d0b179f	0.033958074
77	0xbc9d7498	-0.019220635
78	0xbdd66d90	-0.10470116
79	0xbd7c1883	-0.061546814
80	0x3c9599fd	0.018261904
81	0xbd5608e0	-0.052254558
82	0xbe4c9236	-0.1997765
83	0x3d66e7d8	0.056373447
84	0x3de4eb83	0.11177733
85	0xbd7c45f6	-0.061590157
86	0x3d42ca90	0.04755646
87	0xbdaa9f8d	-0.08331213
88	0xbe88412f	-0.2661223
89	0xbd1dc95f	-0.03852212
90	0xbd171e21	-0.036893968
91	0x3d9d8473	0.07691278
92	0xbd4dc086	-0.050232433
93	0x3d086e27	0.033308174
94	0xbe05166b	-0.12996833
95	0xbd43c862	-0.04779852
96	0xbd104969	-0.03522626
97	0xbdbd9b81	-0.09258176
98	0x3c258b4e	0.010104014
99	0x3e0434f2	0.12910822
100	0xbd87d2e5	-0.06632022
101	0xbe22d41a	-0.15901223
102	0xbc013605	-0.007886414
103	0xbd421ea7	-0.047392514
104	0x3bf3aafc	0.0074361544
105	0x3d9df6b1	0.07713068
106	0x3dac7fc2	0.08422805
107	0xbd1dbde7	-0.038511183
108	0x3d4d9199	0.05018768
109	0xbd2e7ce3	-0.04259957
110	0x3dfeea3c	0.124470204
111	0xbb39bd7e	-0.0028341706
112	0x3c4554de	0.01204416
113	0xbd5baa72	-0.053629346
114	0xbe0ecd3c	-0.13945478
115	0x3d448f70	0.047988355
116	0x3e3965b0	0.18105197
117	0xba37e691	-0.0007015253
118	0x3dbd4c97	0.09243124
119	0xbd420d12	-0.047375746
120	0xbd9fa260	-0.077946424
121	0x3c9320a1	0.017959895
122	0x3bc63112	0.00604833
123	0x3c1bea1c	0.009516265
124	0xbd1f949a	-0.038960077
125	0xbddcefbf	-0.107879154
126	0xbd9cd10a	-0.076570585
127	0xbd868417	-0.06568163
128	0x3d76e2f2	0.060275026
129	0x3dde3422	0.10849787
130	0xbd3f8b7e	-0.04676389
131	0x3c994a3b	0.018712154
132	0xbdd1111a	-0.1020834
133	0x3ca896af	0.020579664
134	0xbe28fa27	-0.16501676
135	0xbc9bf40d	-0.01903727
136	0xbcc58e56	-0.024115723
137	0xbdba1240	-0.09085512
138	0xbd10467f	-0.03522348
139	0x3c9f1d94	0.019423284
140	0xbdd413ab	-0.10355314
141	0xbce111ac	-0.027474247
142	0x3d6d0efa	0.05787561
143	0x3ca2052c	0.019777857
144	0x3d7ea9ca	0.062173642
145	0xbe006aa5	-0.12540682
146	0x3ca2f64b	0.019892832
147	0xbd52f2c4	-0.05150105
148	0x3e04c57b	0.12965958
149	0x3cbdc2cd	0.023164177
150	0x3e0896c5	0.13338764
151	0x3d7e7d9e	0.062131517
152	0xbcffad0c	-0.031210445
153	0x3d9e9adb	0.0774438
154	0x3c1b016e	0.00946079
155	0x3e327bd3	0.17430048
156	0xbd2c9901	-0.042138103
157	0x3e03d21a	0.12873116
158	0x3e088b6d	0.13334437
159	0x3da0a913	0.07844748
160	0x3e271ce2	0.16319612
161	0x3e37ab0e	0.17936346
162	0x3d125fd8	0.035735935
163	0x3d905010	0.07046521
164	0xbd3206fd	-0.043463696
165	0xbdcf3f23	-0.10119464
166	0x3d14c21a	0.036317922
167	0x3cab5558	0.020914719
168	0x3e384d86	0.17998323
169	0xbd8e44a4	-0.06946686
170	0x3c22d16c	0.009937625
171	0xbc07ffb8	-0.008300714
172	0xbcf18330	-0.0294815
173	0xbd7d4ea7	-0.061842587
174	0x3b228223	0.0024796806
175	0x3e288f67	0.16460954
176	0x3d50e04b	0.050995152
177	0x3c23cccb	0.009997557
178	0x3baad613	0.005213508
179	0x3dc997f2	0.098434344
180	0x3c80f985	0.01574398
181	0x3df0d158	0.11758679
182	0x3dafed9f	0.085902445
183	0x3de174b1	0.11008585
184	0x3e458cbc	0.19291967
185	0xbdc974b3	-0.09836712
186	0xbcbf650b	-0.02336361
187	0xbac8aeac	-0.0015310845
188	0xbd385984	-0.045007244
189	0x3dd6ab54	0.10481897
190	0x3dd9bf24	0.1063216
191	0xbd234f42	-0.039870508
192	0xbe038365	-0.12843092
193	0x3d01e924	0.03171648
194	0xbdea06a9	-0.114270516
195	0xb99f9971	-0.00030441166
196	0x3d8caef3	0.068693064
197	0xbd96d658	-0.073651016
198	0xbca77978	-0.020443663
199	0x3cd8bf54	0.02645842
200	0x3c4a7a8e	0.012358321
201	0xbd8cf009	-0.068817206
202	0x3e37df85	0.1795636
203	0x3ca06f63	0.019584363
204	0x3ce7c38b	0.028291484
205	0x3dd561e9	0.104190655
206	0x3d0f6f56	0.035018288
207	0x3de2e2d9	0.11078424
208	0xbdadd917	-0.08488672
209	0xbc903c49	-0.017606871
210	0xbd9ef3f6	-0.077613756
211	0xbcbeb05e	-0.023277458
212	0x3d9e2e33	0.077236556
213	0x3d6f996f	0.058495935
214	0xbc614c3a	-0.013751084
215	0x3e219642	0.15779975
216	0xbe3fac78	-0.18718135
217	0xbe15e33c	-0.14637464
218	0xbe10ef05	-0.14153679
219	0x3d0bbd0d	0.03411584
220	0x39d0d33c	0.00039830233
221	0x3d2528bc	0.04032205
222	0x3d82ee3d	0.063930966
223	0xbbb2652c	-0.0054441895
224	0x3d81a498	0.06330222
225	0x3c175b0b	0.009238015
226	0xbe048673	-0.12941913
227	0xbd51254b	-0.051060956
228	0xbc4f6d7b	-0.0126603795
229	0xbd17cf0a	-0.037062682
230	0x3d9d70dc	0.07687542
231	0xbdd093e3	-0.10184457
232	0xbe5753e6	-0.21028098
233	0x3bba0971	0.005677395
234	0x3b067e42	0.0020522033
235	0xbcd78578	-0.02630876
236	0xbcaf05ff	-0.021365164
237	0x3d8b8ecb	0.06814345
238	0xbc98d9c9	-0.018658536
239	0xbdb27951	-0.087145455
240	0x3d41a3d5	0.047275383
241	0x3df02269	0.11725313
242	0xbdaa1985	-0.08305649
243	0x3c6292d5	0.013828953
244	0x3d0ee6c5	0.034888048
245	0xbd27e709	-0.040991817
246	0xbd01c850	-0.031685174
247	0xbe558e9d	-0.20855184
248	0xbc683aba	-0.014174158
249	0xbd072648	-0.032995492
250	0x3cc37e09	0.02386381
251	0xbbc9ef99	-0.0061625955
252	0xbd1c6203	-0.03817941
253	0x3c29005a	0.010315025
254	0xbd0e631f	-0.034762498
255	0xbd94312d	-0.07235942

sur.charcnn.convs.1.0.bias f4 [100]
0	0xbe579e84	-0.21056563
1	0xbe36825c	-0.17823166
2	0xbd422ca0	-0.04740584
3	0xbe41ec91	-0.18937899
4	0xbd23475d	-0.03986298
5	0xbd4c93b5	-0.049945552
6	0xbdebc606	-0.11512379
7	0xbdbdf678	-0.09275526
8	0xbe4344a8	-0.19069159
9	0xbe1b4926	-0.15164623
10	0xbe0c3589	-0.13692297
11	0xbdb634bc	-0.08896777
12	0xbe0a8f30	-0.13531184
13	0xbe6e492a	-0.23270097
14	0xbdb52c09	-0.0884629
15	0xbdf00640	-0.11719942
16	0xbe413d9e	-0.18871161
17	0xbe16de73	-0.14733295
18	0xbdad9dfe	-0.084774
19	0xbe6af453	-0.22944765
20	0xbdb2477d	-0.087050416
21	0xbde2b6b1	-0.11070002
22	0xbddd245d	-0.10797951
23	0xbe339a86	-0.17539415
24	0xbe219db3	-0.15782814
25	0xbe40999e	-0.188086
26	0xbdcaaf43	-0.0989671
27	0xbdba0b83	-0.09084227
28	0xbe0e9e07	-0.1392747
29	0xbe818a57	-0.25300857
30	0xbe08d65e	-0.13363025
31	0xbe322edc	-0.17400688
32	0xbe735199	-0.23761596
33	0xbd9f579b	-0.07780381
34	0xbe031390	-0.12800431
35	0xbdd689b3	-0.10475483
36	0xbe2e8896	-0.17044291
37	0xbe25b488	-0.16182148
38	0xbe003782	-0.12521175
39	0xbde99c2f	-0.11406743
40	0xbe38d0c0	-0.18048382
41	0xbe10bb25	-0.1413389
42	0xbdbda2da	-0.09259577
43	0xbdd40457	-0.1035239
44	0xbe20856e	-0.156759
45	0xbe70743c	-0.2348184
46	0xbd969d14	-0.07354179
47	0xbe07ad06	-0.13249597
48	0xbdf7236c	-0.12067303
49	0xbdbb3139	-0.09140248
50	0xbe173e62	-0.14769891
51	0xbdea1a89	-0.114308424
52	0xbe48f039	-0.19622888
53	0xbe116bf5	-0.14201339
54	0xbddc56d1	-0.107587464
55	0xbdc6e8a0	-0.097123384
56	0xbde8f0fa	-0.11374088
57	0xbe29165b	-0.16512434
58	0xbe028693	-0.12746648
59	0xbd890010	-0.06689465
60	0xbe0a80bf	-0.13525675
61	0xbe33f945	-0.17575558
62	0xbe13c3c1	-0.14430143
63	0xbda8f23d	-0.08249328
64	0xbe675545	-0.22591121
65	0xbd7e32b7	-0.062060084
66	0xbd95001c	-0.072754115
67	0xbde1881c	-0.11012289
68	0xbddf5812	-0.1090547
69	0xbe839c2a	-0.2570508
70	0xbdd7e6a0	-0.10542035
71	0xbe4ae944	-0.19815546
72	0xbe26d30b	-0.16291444
73	0xbe192cc2	-0.1495848
74	0xbe3ac89d	-0.1824059
75	0xbe19ae1d	-0.15007825
76	0xbdae30d8	-0.0850541
77	0xbe0a0c4e	-0.13481256
78	0xbe11540a	-0.14192215
79	0xbe1ab644	-0.15108591
80	0xbe03f931	-0.12888028
81	0xbe1feacb	-0.1561691
82	0xbe313738	-0.1730622
83	0xbe2db5e1	-0.16963913
84	0xbd572a18	-0.052530378
85	0xbe7bd703	-0.24593739
86	0xbda1f072	-0.079071894
87	0xbe427c76	-0.1899279
88	0xbdb347ac	-0.08753905
89	0xbe004e84	-0.12529951
90	0xbe2042e6	-0.1565052
91	0xbd9acbcb	-0.07558402
92	0xbd203125	-0.039109368
93	0xbdd482a5	-0.10376481
94	0xbd7ad91e	-0.061242215
95	0xbd2fc30b	-0.042910617
96	0xbe048ec3	-0.12945084
97	0xbdd95225	-0.10611371
98	0xbe6e1fd0	-0.23254323
99	0xbe1beae6	-0.15226325

sur.charcnn.convs.2.0.weight f4 [100, 100, 5]
0	0x3d155f2b	0.036467712
1	0x3cc8bb8d	0.024503494
2	0x3d7384b3	0.059452724
3	0xbc9b3c3e	-0.018949624
4	0x3d5a1a12	0.05324752
5	0xbce0fa03	-0.027462965
6	0xbd9ce275	-0.07660381
7	0x3cf494bc	0.029856078
8	0x3cd3d812	0.025859866
9	0x3d18045c	0.037113532
10	0xbd17f96e	-0.03710311
11	0x3cb71ea4	0.022353478
12	0xbd826681	-0.06367207
13	0xba1635f1	-0.0005730084
14	0xbd325947	-0.043542173
15	0x3c9b4562	0.018953983
16	0xbdaaf5a6	-0.08347635
17	0xbdc48703	-0.09596064
18	0xbc672d78	-0.014109962
19	0x3e026707	0.12734614
20	0xbd273a51	-0.0408271
21	0xbe011637	-0.1260613
22	0x3da174f7	0.078836374
23	0x3d339c42	0.04385019
24	0x3db42067	0.08795243
25	0x3c7925d4	0.015206773
26	0xbdd30550	-0.10303748
27	0x3bf66753	0.0075196414
28	0xbd7408c2	-0.059578665
29	0xbc0efed0	-0.008727744
30	0xbdac5df8	-0.084163606
31	0x3c256224	0.010094199
32	0xbcd6b592	-0.026209626
33	0x3d99fb89	0.0751868
34	0x3c55e58d	0.013055217
35	0xbc090e3b	-0.008365209
36	0xbb961610	-0.004580267
37	0xbd6e4783	-0.058173668
38	0x3d056487	0.032566573
39	0xbd4f82aa	-0.05066172
40	0x3cd1ae0c	0.025595687
41	0x3de491b5	0.11160604
42	0xbb824689	-0.0039756936
43	0x3c285ffc	0.010276791
44	0xbd3bc0bc	-0.045838103
45	0x3d571486	0.052509807
46	0x3d1e195c	0.038598403
47	0x3dbe7ba7	0.093009286
48	0x3d4a9fd1	0.04946882
49	0xbd1fadbc	-0.038984045
50	0xbdb9f48c	-0.09079847
51	0x3d244a74	0.040110067
52	0x3d2e9810	0.042625487
53	0xbd9d4d9c	-0.076808184
54	0xbc89ade1	-0.016806545
55	0xbddb627d	-0.107121445
56	0x3e0b03bf	0.13575648
57	0xbd309420	-0.043110013
58	0x3d9a524a	0.07535227
59	0xbdd28a54	-0.1028029
60	0x3de2e253	0.11078324
61	0x3c0df06e	0.00866328
62	0x3d7128a9	0.058876667
63	0xbc7fa5e6	-0.015603518
64	0x3c41c295	0.011826177
65	0x3b849a4a	0.004046713
66	0xbd850c85	-0.064965285
67	0x3d814528	0.06312019
68	0xbe007dcc	-0.12547988
69	0x3d449c57	0.04800066
70	0xbb2cbb8e	-0.0026356908
71	0xbdaee079	-0.085389085
72	0x3d706f75	0.058700044
73	0x3d99d98f	0.07512199
74	0x3dc949c3	0.09828522
75	0xbb630ed8	-0.0034646299
76	0x3d0accc0	0.03388667
77	0x3d3a6ec4	0.04551579
78	0x3e083e53	0.13305025
79	0x3e065a01	0.13120271
80	0x3de3aae0	0.11116576
81	0xbdd57a31	-0.10423697
82	0x3ca0dda4	0.019636936
83	0xbd46eaf0	-0.048563898
84	0x3d0e8ee9	0.03480426
85	0x3d9cd81a	0.076584056
86	0x3c75412b	0.014969151
87	0x3d81ceb2	0.06338252
88	0x3d689aa3	0.056788098
89	0x3db566a8	0.08857471
90	0x3c86543f	0.016397594
91	0xbcd8c326	-0.026460242
92	0x3d89c7c8	0.067275584
93	0x3c8e0283	0.017335182
94	0x3d8724f8	0.06598848
95	0x3bcc6945	0.006238135
96	0x3d692af7	0.05692574
97	0xbdc64d28	-0.09682685
98	0x3e025317	0.12727009
99	0x3d334e28	0.043775707
100	0x3d196763	0.037452113
101	0x3da66c02	0.081260696
102	0x3db1ef6d	0.08688245
103	0x3c479e3d	0.012183723
104	0xbd5fccec	-0.054638788
105	0x3db38750	0.08766043
106	0xbd63633c	-0.05551456
107	0x3c0311ff	0.007999896
108	0x3da5f80e	0.08103953
109	0x3d5b5980	0.05355215
110	0xbdb27509	-0.08713729
111	0xbd837eac	-0.06420645
112	0x3cc83420	0.024438918
113	0x3da33406	0.07968907
114	0xbdacb5d1	-0.08433116
115	0xbd03df76	-0.03219553
116	0x3c88aed0	0.01668492
117	0xbd7dded4	-0.061980084
118	0x3beaeccb	0.007169341
119	0xbd905e09	-0.07049186
120	0xbd332ea5	-0.043745656
121	0xbda4893a	-0.080339864
122	0xbc8f8062	-0.017517272
123	0x3dbab2c7	0.0911613
124	0xbcb7b8ff	-0.02242708
125	0x3da4072b	0.0800918
126	0x3d87c28c	0.06628904
127	0xbdbb5bcd	-0.09148369
128	0xbbacc067	-0.0052719596
129	0x3bb773b2	0.0055985088
130	0x3b9a4e30	0.0047090277
131	0x3856ca2d	5.1209867e-05
132	0xbe2057bf	-0.15658472
133	0xbd0b5c18	-0.034023374
134	0xbdfee0b0	-0.124451995
135	0xbd9ee72f	-0.077589385
136	0x3d8a0aa0	0.06740308
137	0x3baee4e2	0.0053373436
138	0x3d85bd12	0.06530203
139	0xbca09014	-0.019599952
140	0x3c94a686	0.01814581
141	0x3e0a6c0a	0.13517776
142	0xbbe01dbf	-0.0068394835
143	0xbcdfbf36	-0.027312856
144	0xbd42a613	-0.047521662
145	0xbe2ea884	-0.17056471
146	0xbb8950cd	-0.0041905404
147	0xbd06c081	-0.03289843
148	0xbd97f6fc	-0.074201554
149	0x3ca1c009	0.01974489
150	0x3d14bce5	0.036312956
151	0x3da2d5a2	0.079509035
152	0x3d6dd2ec	0.05806248
153	0x3e07b1eb	0.13251464
154	0xbd6040bc	-0.054749236
155	0xbd8a2226	-0.067447945
156	0x3dcc237a	0.09967704
157	0x3c907f31	0.017638775
158	0xbdb0b0c7	-0.086274676
159	0x3de14b82	0.1100073
160	0xbd748270	-0.059694707
161	0xbd1f96a1	-0.03896201
162	0xbd0374bd	-0.032093752
163	0xbdea1678	-0.11430067
164	0x3d43351a	0.047658063
165	0x3d83ae54	0.06429735
166	0xbd30fd52	-0.043210335
167	0x3d6375dd	0.055532325
168	0x3d7d91c0	0.061906576
169	0xbd50c17b	-0.050965767
170	0x3d7dc6ee	0.061957292
171	0xbdb6576a	-0.08903392
172	0xbda0bdd6	-0.07848708
173	0xb9b879e9	-0.00035186045
174	0x3cd510b2	0.026008938
175	0xbcb1e1f7	-0.021714194
176	0xbd5729b2	-0.052529998
177	0xbd1dc248	-0.03851536
178	0x3daebdaa	0.08532269
179	0xbcf1c118	-0.02951102
180	0xbcf152e5	-0.029458473
181	0xbce37023	-0.027763432
182	0x3d392d71	0.045209352
183	0x3befaaa7	0.0073140445
184	0x3d9e239c	0.07721636
185	0xbd107f00	-0.035277367
186	0x3d2658bd	0.04061197
187	0x3de3ef90	0.11129677
188	0xbd040fc5	-0.0322416
189	0x3d505809	0.050865207
190	0xbd83e4ab	-0.06440099
191	0x3da8985e	0.08232187
192	0x3ce207dd	0.02759164
193	0xbd24d663	-0.040243518
194	0xb91e3014	-0.00015085965
195	0x3dbf8e03	0.093532585
196	0xbcc5a2d1	-0.024125488
197	0x3e1693d1	0.14704825
198	0x3caad543	0.020853644
199	0x3d8b6f6f	0.06808364
200	0xbcf998f5	-0.030468443
201	0x3d5777a9	0.05260435
202	0xbe343fd0	-0.17602468
203	0x3cd6dece	0.026229288
204	0xbca5e0f3	-0.020248866
205	0x3b8f1c6b	0.0043674014
206	0xbb2eba2c	-0.002666126
207	0x3db3f788	0.08787447
208	0xbd49f2ec	-0.049303934
209	0x3bd73e86	0.0065687327
210	0xbcf8dbff	-0.03037834
211	0x3d06c2df	0.032900687
212	0xbdb1c98d	-0.08681021
213	0xbc574aab	-0.013140361
214	0xbc021378	-0.007939212
215	0x3ded9756	0.11601131
216	0x3da1fb33	0.079092406
217	0xbd3153f4	-0.043292955
218	0xbbd274df	-0.0064226235
219	0xbd8d4404	-0.068977386
220	0x3d425825	0.047447342
221	0x3d358cea	0.04432384
222	0x3d52c6b1	0.05145902
223	0xbd0f4287	-0.034975555
224	0xbd62c87a	-0.05536697
225	0x3bf06e61	0.007337377
226	0x3d9c011f	0.07617401
227	0x3e046aeb	0.12931411
228	0x3bc05f3e	0.0058707288
229	0xbd85483e	-0.0650792
230	0x3d99eee2	0.075162664
231	0x398f1cea	0.00027296628
232	0xbd557866	-0.052116774
233	0x3d043067	0.032272723
234	0x3e292124	0.16516548
235	0xbbb4b9b7	-0.005515303
236	0xbcbee5da	-0.023302961
237	0xbca2c8c0	-0.019871116
238	0x3e20a065	0.15686186
239	0x3d727cc1	0.059201006
240	0xbddcefb0	-0.10787904
241	0xbba98e4d	-0.0051744343
242	0xbe335a4d	-0.17514916
243	0xbd81f449	-0.06345422
244	0xbcc9e7b1	-0.024646612
245	0x3d03d9fb	0.032190304
246	0xbc793db3	-0.015212464
247	0x3c68cdc0	0.014209211
248	0xbdb18a66	-0.086689755
249	0xbd9ffcc9	-0.07811887
250	0xbb1f7f30	-0.0024337284
251	0x3c28f6a2	0.010312708
252	0x3d786051	0.06063873
253	0x3d9cf2b2	0.07663478
254	0x3d826442	0.06366779
255	0xbc0df522	-0.008664401

sur.charcnn.convs.2.0.bias f4 [100]
0	0xbdd99c9c	-0.10625574
1	0xbdd9badb	-0.10631343
2	0xbdd6bd27	-0.10485297
3	0xbda59c9f	-0.08086514
4	0xbe1ef584	-0.15523344
5	0xbdf006e4	-0.11720064
6	0xbdc8ea8f	-0.098103635
7	0xbe0c99e1	-0.13730575
8	0xbdc2eb1a	-0.09517498
9	0xbde4944e	-0.111610994
10	0xbe051912	-0.12997845
11	0xbdbb7d47	-0.09154754
12	0xbdc6149b	-0.09671899
13	0xbde0efa7	-0.1098321
14	0xbdc115ac	-0.09427962
15	0xbdc04a92	-0.09389223
16	0xbe60e555	-0.21962483
17	0xbe5a68be	-0.21329018
18	0xbd9fdaa4	-0.07805374
19	0xbdcbed99	-0.099574275
20	0xbdfb27f4	-0.1226348
21	0xbdec59bd	-0.11540554
22	0xbdab88cc	-0.08375701
23	0xbdea9e48	-0.11455971
24	0xbdaf63e7	-0.08563977
25	0xbe01d098	-0.12677228
26	0xbdede1a1	-0.11615301
27	0xbe038e2c	-0.12847203
28	0xbdc660d7	-0.096864395
29	0xbe1cf738	-0.15328681
30	0xbd7b3650	-0.061331093
31	0xbe1b0ac1	-0.15140821
32	0xbe196ed8	-0.1498369
33	0xbd87c3e4	-0.0662916
34	0xbe109bb9	-0.14121903
35	0xbdbbd3d6	-0.09171264
36	0xbe2fdb6a	-0.17173544
37	0xbe0d50c2	-0.13800338
38	0xbdd14f0e	-0.102201566
39	0xbe1cfb5b	-0.1533026
40	0xbe19c19d	-0.15015264
41	0xbe2a0909	-0.16605009
42	0xbe2a2035	-0.16613849
43	0xbdacbc01	-0.084342964
44	0xbdb74fa2	-0.08950736
45	0xbe036fb2	-0.12835577
46	0xbe113c06	-0.14183053
47	0xbdfa117d	-0.12210367
48	0xbe0da572	-0.13832644
49	0xbdd9d455	-0.10636202
50	0xbdd3f863	-0.103501104
51	0xbe0c483e	-0.13699433
52	0xbdf951ca	-0.12173803
53	0xbddc9500	-0.10770607
54	0xbdf84120	-0.121217966
55	0xbdfa392e	-0.122179374
56	0xbe24806a	-0.16064611
57	0xbe1ed0b6	-0.15509304
58	0xbe0c374a	-0.13692966
59	0xbdaff7ae	-0.08592163
60	0xbdbc0184	-0.091799766
61	0xbe386ada	-0.1800951
62	0xbe0672e6	-0.13129768
63	0xbdf0498a	-0.117327765
64	0xbd9d2aa0	-0.07674146
65	0xbddc1efc	-0.10748097
66	0xbe41aa51	-0.18912627
67	0xbdcd3ace	-0.10020982
68	0xbd9ef88e	-0.07762252
69	0xbe73a2d1	-0.23792578
70	0xbe14dfd0	-0.14538503
71	0xbdaa4734	-0.08314362
72	0xbe02e2e6	-0.12781867
73	0xbd71a0c1	-0.058991197
74	0xbdd90cca	-0.105981424
75	0xbdd42e2c	-0.10360369
76	0xbdc4d186	-0.09610276
77	0xbd8245f2	-0.06360997
78	0xbe29b48a	-0.16572776
79	0xbe439e02	-0.19103244
80	0xbd968535	-0.07349626
81	0xbdef83f2	-0.116950884
82	0xbdfd8100	-0.123781204
83	0xbde82baf	-0.11336457
84	0xbdf5895c	-0.1198909
85	0xbda86bb9	-0.082236715
86	0xbe213914	-0.1574443
87	0xbe1d9636	-0.15389332
88	0xbddec97d	-0.108782746
89	0xbd979461	-0.07401348
90	0xbdf91cb8	-0.12163681
91	0xbdfc2697	-0.12312048
92	0xbdd53a66	-0.10411529
93	0xbdf9c879	-0.1219644
94	0xbe3c12a8	-0.18366492
95	0xbde46a23	-0.111530565
96	0xbda5d544	-0.08097318
97	0xbe52f54c	-0.20601386
98	0xbe8be169	-0.27320412
99	0xbe1614de	-0.14656398
