intrinsic/log/best.jaccard.7.10.pt (torch_old, 926758 bytes, 17 tensors)

lW f4 [100, 100]
00000000: 1bd0 fa3e 5f04 543e 3bae acbe 5d17 74be
00000010: 4e9d c73e 8b3b 303e 9085 343d 6b62 c03e
00000020: dffe 63bc 14ba c43d 6c7f 4e3d e555 84be
00000030: 8e7c 65bb ff36 4f3e 1bda 953e dd3a eb3d
00000040: f9e8 03be 487a 2bbf d840 edbe f219 443e
00000050: 7ac2 b1be 8fb3 d6bd ed3a fabc e04c 96be
00000060: 2146 46bd 617b 80be 05b6 a3be 595c 7abe
00000070: df04 3bbe e7e8 4d3e f072 babe b874 f1be
00000080: a217 8d3e 0c4b 7bbe 3af3 b43d a4cd b53e
00000090: 5428 d73d 0428 a83e 26fa 323d 1a6e ffbe
000000a0: 6bb6 6c3c a71a 243d 6886 26bf ed8f 9bbe
000000b0: d916 d83e 9e46 dcbe 167e e53d 0c54 9dbe
000000c0: 49e0 bfbe e493 663e 22f6 3f3e 5cc8 ca3d
000000d0: d07e ff3e e53f 6d3f 3811 abbe b491 a13e
000000e0: d7bd b9be 182b c23c ceec d03e da5f 0abf
000000f0: 073d 943e 1fed a2be 35bf 393e c16e e93c
00000100: 1219 8cbe 08f6 a1be 27b2 a1bd 8ccf e83e
00000110: 0aca acbe 71ef 783e e8a2 be3e 232d bebe
00000120: fea6 e33e 13ff 79be 981d a3be 9bad 31bd
00000130: 371d aa3d 153f 343d 9d1a 9bbd 818e 65be
00000140: b426 4e3d b134 60be b6ff c13d 60d8 b1be
00000150: 3ca5 9abe 4c8a 893d abdc b43e 552d 8f3e
00000160: 8a30 8e3e 2d07 90bc 9ff4 843e c077 053e
00000170: dfcf 3ebe e368 93be 87d7 513e ab67 d63e
00000180: 0a70 1b3f 382f c23e 44cb 0abe abfa ab3e
00000190: a97a 243f a177 9b3e 510e 83ba 08e6 d6be
000001a0: 768c 7b3e 2756 6c3d 4b04 5cbd 4ad7 403d
000001b0: 9203 323c 671a e63e 98b7 223e 096b 52be
000001c0: b111 b9bd 7615 c83d c898 263e bbcd 193e
000001d0: e96b 0dbf 64b3 7fbf 01d5 bcbe 16e2 b43e
000001e0: 00de 49be 1483 8abe 8225 c63d ff5c d2be
000001f0: 7aef febe 83e1 1bbf 7ac8 0ebf 0e37 26be
00000200: 6754 71bb e587 a93e 4ceb a8be 6908 19be
00000210: dd83 e13d 7341 fbbd 9ae4 ed3d b401 223d
00000220: baea 263c 134b a93d c502 88be fea7 c6be
00000230: a916 96be 060f 80be 5345 22bf 614d b7be
00000240: b7b9 b83e ff53 65be 84e9 1a3f a50f a9be
00000250: f42d 8abe 44ec 71bd 88b9 c23d 5546 aebe
00000260: aef0 b63e 0e15 343f 404d dabd 4f98 013f
00000270: 2c4d 2dbd 2a82 a5bd d8fd ca3e d50d cdbe
00000280: 5092 ad3e 9d58 c1be 0dc3 da3d 7024 453e
00000290: d647 01bf 055f b3bc aaae 38be 8ea8 3a3f
000002a0: b663 e1be dc4a 013e 43c1 913e 51a3 45be
000002b0: 71dd 463f 4e27 5bbd d0fd ca3d e8b1 29be
000002c0: 3334 513e 2c88 0ebe 7ab6 01bf 211f 383d
000002d0: 3253 7abd 4e21 0bbf 4f69 e13e b954 94be
000002e0: 6d8f 263e 91ba e83e edc0 413e 4ca2 083f
000002f0: 8f8c a7bc db58 00bf 7462 8e3d acdc 823e
00000300: e0de a5bd b901 bcbd cb5a 243d 12b2 c93d
00000310: 86d4 7e3e 2e9e 503d b205 1dbe 8abd 563e
00000320: 1620 163f 6976 fc3e 8532 833e 4b22 d8be
00000330: 8433 d23e 51f0 833e eaad fd3e 1de1 593e
00000340: c204 d43c 67f0 3cbc 7def cb3c e2e7 aebe
00000350: 96cf bbbc 3483 a23e d17b 8f3e d788 bcbd
00000360: 0c7e d3be 8ae9 55bf 012a 00bd f59c b33e
00000370: bb1f 273d f9b5 a5be bebc f93d c00a 1fbf
00000380: 2a92 863c 86b9 bbbe 3c72 37bf 99fa 4ebe
00000390: 0597 36be 12c0 c83e 439a 11bf 9cf0 58be
000003a0: bad6 a93e 5e3a 28be cdd9 75bd 0e5f 9c3e
000003b0: 224e cebe 15bc d83e 7f76 1bbf 4867 18bf
000003c0: d29e 5bbe 0605 3dbe ed08 31bf 6299 14bf
000003d0: bff3 453f a4d0 2fbf 7f19 573d 7d8e dabe
000003e0: c098 e03c 2994 92be 1982 263e 9fce e53c
000003f0: 3684 1b3f 42f3 593f 1ed6 e6be c857 363f
0.48986897 0.20704792 -0.33726677 -0.23837037 0.389872 0.17210214 0.044072688 0.37575087
-0.0139157465 0.09605804 0.050414488 -0.25846782 -0.0035016867 0.20235823 0.29267964 0.11485837
-0.12881841 -0.6698346 -0.46338534 0.19150522 -0.34718686 -0.10483467 -0.030545676 -0.29355526
-0.048406724 -0.2509413 -0.31974807 -0.2444929 -0.18263577 0.20108376 -0.36415815 -0.47159362
0.27557093 -0.24540347 0.08835454 0.35508454 0.10505739 0.3284303 0.04369559 -0.49888688
0.014447789 0.04006448 -0.6504884 -0.30383244 0.4220493 -0.43022627 0.112056896 -0.30728185
-0.37475803 0.22517353 0.18746236 0.09901497 0.49901438 0.9267562 -0.33411574 0.31556475
-0.3627765 0.02370219 0.40805668 -0.5405251 0.2895281 -0.31821534 0.18139346 0.028495194
-0.27362877 -0.3163302 -0.07895308 0.45470846 -0.33747894 0.2431009 0.37233663 -0.37143812
0.44463342 -0.2441371 -0.31858516 -0.043378454 0.083063535 0.044005472 -0.075734355 -0.22417642
0.05032988 -0.218951 0.09472601 -0.34735394 -0.3020419 0.06715831 0.35324606 0.27964273
0.27771407 -0.017581547 0.2596788 0.13033962 -0.18633984 -0.2879096 0.20492373 0.41875967
0.60717833 0.3792665 -0.13554102 0.33589682 0.64249665 0.30364707 -0.0009998773 -0.41972375
0.245653 0.05769935 -0.05371503 0.047080316 0.010865109 0.44942018 0.15890348 -0.20548643
-0.090365775 0.09769718 0.16269219 0.15019886 -0.5524278 -0.99883103 -0.3688126 0.3532874
-0.19713593 -0.2705313 0.09675123 -0.41086575 -0.4979208 -0.6089098 -0.5577465 -0.16231939
-0.003682399 0.33111492 -0.32992017 -0.14944614 0.11011479 -0.12268343 0.11615868 0.039552405
0.010187799 0.082662724 -0.26564613 -0.38800043 -0.29314163 -0.25011462 -0.6338703 -0.35801223
0.3607919 -0.22395323 0.60512567 -0.33019748 -0.26988184 -0.05906321 0.095080435 -0.34038034
0.357305 0.70344627 -0.106592655 0.5062303 -0.042309925 -0.080814674 0.39646792 -0.40049616
0.3390069 -0.3776292 0.10681734 0.19252181 -0.5050024 -0.021895895 -0.18035379 0.72913444
-0.44021386 0.12626213 0.2846776 -0.19300582 0.7768164 -0.05350428 0.09911692 -0.16571772
0.20430069 -0.13919133 -0.5066906 0.04495156 -0.061114497 -0.54347694 0.44025657 -0.28970888
0.1626565 0.4545484 0.18921252 0.53372645 -0.020452766 -0.5013558 0.06952372 0.25558984
-0.08099151 -0.09180016 0.04012565 0.09848417 0.24885759 0.050932102 -0.15334204 0.20970741
0.5864271 0.4930909 0.2562448 -0.42213663 0.41054928 0.25769284 0.49546748 0.2127728
0.025881175 -0.011531926 0.02489447 -0.34161288 -0.022926133 0.31740725 0.28024152 -0.09205788
-0.41307104 -0.8355948 -0.031290058 0.35080686 0.040801745 -0.32365397 0.12194203 -0.6212578
0.016427118 -0.3666498 -0.7165868 -0.20212783 -0.17831047 0.39209038 -0.5687601 -0.21185535
0.33171636 -0.16428515 -0.060022164 0.3054127 -0.40293986 0.42330995 -0.60727686 -0.59532595
-0.21447304 -0.18458948 -0.69154245 -0.58046544 0.7732505 -0.68677735 0.05251455 -0.42686835
0.027416587 -0.28628662 0.16260566 0.028052626 0.6074861 0.85136807 -0.45085233 0.71227694

rW f4 [100, 100]
00000000: 951c 323f 408c 393f 7814 053e 8492 5e3d
00000010: b730 00bf fbc1 d03d 57fd a5be 8555 b9be
00000020: 2028 383e 89f9 12be abd1 293e bd08 09be
00000030: 6772 a03e 59ce 83be 5b55 6e3d b629 4c3e
00000040: a512 d63d 8f79 1c3e 9101 663e 5248 ab3e
00000050: e950 4bbd 4895 01be 0ef8 2bbe e3f8 cc3e
00000060: 83b5 ad3d 2275 17bf f1cf 9bbe 22e9 8cbe
00000070: f14f 413e 152e 97be 31df debe b287 e73d
00000080: 9836 183e 5b8e c6be 3d4a 2a3e 951c aabe
00000090: 91d8 ea3e 2d2c 673d 62f0 d63d c3d4 513e
000000a0: a434 0b3f 4231 c6be 671a 2bbe 3cab 10bf
000000b0: d417 963d 68ba 4abe 1942 653e 0199 b6be
000000c0: 568e f1bd 5dbb 1c3d 3ee4 2e3f d1ff be3d
000000d0: 1788 663e e6ee 9e3e d875 f53d b096 883e
000000e0: e515 763e 7156 0fbf a5ef c63b 99b2 9b3d
000000f0: 6954 003f 08c5 35be f860 993d b124 61be
00000100: 0514 053f 5405 eabc defe 093e 476d c1be
00000110: 0fdd ffbe b68c 9ebd 597f aebd a200 3e3e
00000120: a1e7 373e eff4 7abe ad15 af3e da6c b6be
00000130: 13a8 043f b8d4 86bc 08e2 37bd 7689 d5be
00000140: 2bfc 643d 3502 97bd 861e bd3d 78e9 4abe
00000150: e512 e8bc 1261 94be 0b1f 41be b187 1dbf
00000160: 473a 403e 861a a0bd ba02 b33e 9069 6bbe
00000170: 78f4 65bd 1cdb b93d 9e0b e73e 9691 ba3e
00000180: 6ba4 f3bd 2b40 bbbd 64a1 3a3e 97a8 ec3d
00000190: 61a4 553f 8daf 563f 179c 94be e01e cc3e
000001a0: 1531 40be b492 1e3e fa6d b03e 7801 92bd
000001b0: 78af 1cbc 998c 5b3f 9cac 86bd d2db 77be
000001c0: f898 813e fe74 ce3b 49c7 1c3e 0622 e9be
000001d0: 9215 923e 2e1c 5c3f ad98 47bd 1ab5 483f
000001e0: b12a 0ebe 2800 8bbe 6863 8ebe 8619 963e
000001f0: da89 8bbe e6bf bcbe 01b1 f03d 9c57 10be
00000200: 6975 853d 73e3 e33e 9810 9d3c 035a 88be
00000210: 74ff 0f3e 208a b8bf f72e 74be 9ad1 4b3e
00000220: 283f 403f 1758 843e a66d 1d3f fd5b 97be
00000230: 1ed1 7a3f 9e7d 743e cac2 80bf 8a6a b53e
00000240: 757c 53be 0ade 2ebe ce90 713c 9ab8 58bf
00000250: 0841 82bf e436 bc3d f824 033f ef6f 0f3f
00000260: d579 a13e 643c 1b3f f381 ee3e 6fe9 9cbe
00000270: 1f74 23bf 6728 34bf 3b34 c33e 9c51 473f
00000280: 8454 a9be fdb6 cf3e 7bee 5ebe dee9 38bf
00000290: 1d88 8b3f 36a5 a0be 44bb 1cbf 890c 9c3e
000002a0: 3b9f 14bf 3c67 1a3f 203f 063e 602b 58bf
000002b0: 8d49 92be a45f fdbe de1d b9be 1151 9dbe
000002c0: 5108 743e b5fc 2dbf 2b20 5ebe 9d13 c0be
000002d0: 372f 0e3e d263 a73e fc5b 7abe c840 1cbf
000002e0: 1093 40bf 016b 1fbf 0b80 053f af91 e73e
000002f0: cf05 ddbd e16f e13e 7f7a 4e3f 5f3d d13d
00000300: 4b94 efbe b5c5 6d3e eb49 373f 8ffb a93e
00000310: d359 09be 136e a7be 3bc2 26be 37dd 97be
00000320: 3c33 f83e f424 19be 88f7 013f c6c0 843f
00000330: 4ede 883e d319 cdbe 8caa 03bf 5180 b6be
00000340: cf19 ad3e fe8c 033f d0be 0dbf 23e9 d4bd
00000350: 2afe 5f3e 781c a73e 5836 16bf 79cd cabe
00000360: 29e6 95be bdae 753f 58c6 133b 985f fb3b
00000370: 145f 683e 7ddb 68be dbee edbe d759 e0bd
00000380: c3cf dabd 61d4 843e fed3 83be d30c 073f
00000390: d9c5 06be efa6 82bd cc6e 0a3f f208 e53e
000003a0: 4eea 043f 64e7 5bbe dc48 a7bf 15e7 cb3d
000003b0: bd42 863d 978d babe 4281 89be df20 86be
000003c0: cf6b 84bf 8b13 76bb c208 b1be 1882 4d3e
000003d0: e27b 013e 7c71 df3d 42e3 e8bd f1df 813e
000003e0: 0153 aabe 2be8 a13e 3236 5bbe 2e18 c53e
000003f0: 0e47 943e 6fa3 d83e 4fcd 4c3f 790e 97be
0.6957486 0.7247963 0.1299609 0.054338947 -0.5007433 0.10193249 -0.32419845 -0.3619806
0.17984056 -0.14353003 0.16583888 -0.1338224 0.31337282 -0.25743368 0.05818687 0.19937786
0.10452775 0.15280746 0.22461535 0.33453614 -0.04963771 -0.12654603 -0.16793844 0.40033635
0.08481886 -0.59163105 -0.30432084 -0.27521616 0.18878151 -0.29527345 -0.43529657 0.11305179
0.14864576 -0.38780484 0.16629882 -0.3322493 0.45868352 0.056438614 0.10495068 0.20491318
0.543772 -0.38709456 -0.1670929 -0.5651128 0.073287636 -0.19797671 0.22388496 -0.35663608
-0.117947266 0.03826462 0.6831702 0.09326137 0.22512852 0.3104164 0.119853675 0.26677465
0.2403179 -0.55991274 0.0060710483 0.07602424 0.501288 -0.17750943 0.074891984 -0.21986653
0.5198367 -0.028566994 0.1347613 -0.37778684 -0.49973342 -0.07741682 -0.085203834 0.18554929
0.17959453 -0.24507497 0.34196225 -0.35629922 0.5181896 -0.016458854 -0.044893295 -0.41706437
0.05590455 -0.07373468 0.092343375 -0.19815624 -0.028329322 -0.2898031 -0.18859498 -0.61535174
0.18772231 -0.07817559 0.34963018 -0.22989488 -0.056141347 0.09074995 0.4512605 0.36439198
-0.118965946 -0.091430984 0.18225628 0.115555935 0.8345395 0.8386162 -0.29025337 0.39867306
-0.18768723 0.1548565 0.34458905 -0.071291864 -0.009563319 0.8576141 -0.065758914 -0.24204949
0.25312018 0.0063005676 0.15310396 -0.4553377 0.28532082 0.859805 -0.048729587 0.7840134
-0.13883473 -0.27148557 -0.27810216 0.29316348 -0.2725361 -0.36865157 0.11752511 -0.1409592
0.06516535 0.44509467 0.019172952 -0.26631173 0.14062291 -1.4417152 -0.2384604 0.19904175
0.7509637 0.25848457 0.61495435 -0.2956237 0.9797534 0.23876044 -1.0059445 0.35432845
-0.20652945 -0.17076889 0.014743997 -0.8465668 -1.0176096 0.09190157 0.51228285 0.5603017
0.31538263 0.60639024 0.46583518 -0.30646846 -0.6384906 -0.7037415 0.38125786 0.778589
-0.33072293 0.40569296 -0.2177066 -0.72231853 1.0900913 -0.31376046 -0.61223245 0.30478314
-0.58055466 0.60313773 0.13110018 -0.84441185 -0.2857174 -0.4948703 -0.361556 -0.3072591
0.23831297 -0.67963725 -0.21691959 -0.37514964 0.13885199 0.32693344 -0.24449152 -0.6103635
-0.752244 -0.6227265 0.52148503 0.45228335 -0.107921235 0.4403067 0.80655664 0.10216784
-0.46792826 0.2321995 0.71597165 0.33199736 -0.13413171 -0.32701167 -0.1628503 -0.2966096
0.4847659 -0.14955503 0.5076833 1.037133 0.26732105 -0.40058765 -0.5143211 -0.35644773
0.33808753 0.5138701 -0.5536928 -0.1039603 0.218743 0.32638907 -0.5867667 -0.39609888
-0.2927716 0.95969754 0.0022548642 0.007671308 0.2269252 -0.22739978 -0.46471295 -0.109546356
-0.10684159 0.25943282 -0.25747675 0.52753943 -0.1316141 -0.06379496 0.5407531 0.44733387
0.5192002 -0.21474987 -1.306911 0.09956185 0.06555698 -0.3643615 -0.26856428 -0.26196954
-1.03454 -0.003754827 -0.34576994 0.20069158 0.12644914 0.10910317 -0.11371471 0.25366166
-0.33266452 0.31622443 -0.21407393 0.3849501 0.2896046 0.4231219 0.80000776 -0.2950323

charcnn.char_emb.weight f4 [101, 100]
00000000: 9871 e1bf 89b1 cfbf 44cb 80be b31c 0fbf
00000010: a70c 3a3f 70e7 ec3e 7687 66be fe56 0ac0
00000020: 334c 423e a793 ccbf dea4 3a3f e036 b43e
00000030: 571e c43d cdac f13f 1611 9e3f 299d 17be
00000040: 4bc9 e7bf a36b ebbf 5060 193f bc68 793f
00000050: 9835 183f d22a 05c0 c091 1cbf bf12 1a40
00000060: c930 553f 2edd 51bf a410 90be fdd3 383f
00000070: b964 a73f ed49 0540 e459 473f 9805 39bf
00000080: 500e f8be 6891 babb dae3 d1be d658 123f
00000090: 0f44 4b3f 6c82 bc3e a225 1a3f 6698 fa3e
000000a0: 9c1a a53d ea1b 6a3f 48b2 58bf 42d2 8a3e
000000b0: 7ed0 263f f328 2b40 ba19 c4bf 535d d2bf
000000c0: b8f1 56bf f0c4 2b3f b10e 523f a7c2 70be
000000d0: 73dc cabe 8ded 1fbf f388 d33d d1b6 65bf
000000e0: 175c 6cbf ffad 8e3f 4a57 d43f 0e32 6640
000000f0: 4986 cabf b9c5 c2bf b09c 0940 8db6 9abf
00000100: 22d2 5bbf 695c 8c3f 5467 b43f 3584 943f
00000110: b9a4 d7bf dd9c 3c40 c50a 1fbf d54f a33e
00000120: 4022 debf 90b8 20be 2ba3 85be 0ea4 e0be
00000130: d7bb 9dbf 01bc c03f 03b5 aabe 0f2a 9e3f
00000140: bc50 39bd cf5a 863f 9e1c 00bf 354f 93be
00000150: e849 a13f fe31 24bf 6f77 c03f d0b4 853f
00000160: f557 773e 867e 1840 3f91 18c0 768c c7be
00000170: 3482 bfbf e37c 81bf daf9 ea3d 5ed9 893f
00000180: 7045 dc3f 8dcd dbbf 5a10 553e d0f1 4f3f
00000190: a6fc 36c0 b722 e7bf c798 8bbe a634 083d
000001a0: a9db 8a3e a0c9 8a3e 2fa5 bc3e d52f b53e
000001b0: 76b4 db3e 6cb0 9cbf bc22 9f3f 8882 8fbf
000001c0: a794 01bf 160b 31c0 31c0 d23c ff30 a23d
000001d0: d699 9e3f c0b9 df3e d8e3 6cbf 48b2 f2bd
000001e0: 24e4 04bf d5c9 23bf e8fd 1040 979b 00bf
000001f0: 7538 d4bd b74d ce3f cf36 623f 0e8e c93f
00000200: d785 8bbf e33b 93be 8d08 4ebf 1987 133f
00000210: 07c0 2d3f bca4 263f 309e f93f f010 95bf
00000220: 20db 913c 4e95 c03e aeae 6bbf c8eb c2bf
00000230: 1fa4 03bf 8cfe 8dbf 2ec9 19bf a670 5b3e
00000240: 6b56 5abe d35c a23e 72ad 2fbe 0649 af3f
00000250: 110f 063e fa37 b53e 4025 18be 72a0 c8be
00000260: e1c3 ad3e 9d4d 34bf 85e7 fcbf 6015 4d3e
00000270: 8542 18bf fcc9 0d3f 03b7 943e 51e0 323f
00000280: d642 7d3f 46e3 99bf 94a2 403e 0b25 efbc
00000290: 5953 a03f bc1a 5ebe 7037 823f c4d3 193f
000002a0: b6e4 973e 0d1a c33e a847 7abd 06ba 1a3f
000002b0: dd98 a1be 144e a3bf 2828 bebe 7eb5 07c0
000002c0: 300d f2be e3be acbe f253 f1bf 8649 78bf
000002d0: 24c2 ae3f 0b98 1d3e c8ea e43f 437d 8e3f
000002e0: 45c7 98bf a216 5cbf 209a c63f f729 683e
000002f0: 44a3 163f aa66 7abf 2eb0 99bf f157 e1bf
00000300: e2ec 4dbf 97f5 133f ea8e dd3e 03cd 073f
00000310: 59d3 e53d 1bb3 863f 94de b7be 0fb6 be3f
00000320: cdfd 0ebf a05c 8abf 0323 bc3e 2aae ff3e
00000330: b458 183f 163f 89bf 2649 e93e 19ab 7abe
00000340: 626f 8d3f 92bd bbbe 1bf9 de3f b932 383f
00000350: 6d1d d5bf 3269 c43f 2e19 13bf f187 a8bf
00000360: 4367 813f f983 d93f 1bd6 a1bf 6a8c 0a3f
00000370: 6d46 d63d 0f63 f9bc 618e 71bf 4da2 113f
00000380: 7e63 44bf e542 ee3f 84e0 9f3e 93c5 da3d
00000390: 1c46 1bbe 1a8a 3e3f 08f3 c6be 449a f1bf
000003a0: 648b c53e 9f45 2ebf 96ef 5cbe 2126 6d3f
000003b0: 47e5 a8bf 70fd a53f dc5e 753f 7c12 f3bf
000003c0: bca5 95bf 4aeb c6bf a705 15bf 25ab d3bf
000003d0: 5348 e73f 39b0 15be 1171 083f e18e a0be
000003e0: 6456 63bd 10b3 813f 5ec5 553f 1e85 9bbf
000003f0: 2684 37bf 3e3a 2c3e ea1b cd3f 2897 2d3f
-1.7612791 -1.6226054 -0.2515508 -0.55903167 0.72675556 0.46270323 -0.22512612 -2.1615596
0.1897438 -1.598256 0.7290782 0.35198116 0.09576099 1.888086 1.2348964 -0.14806046
-1.8108305 -1.8392223 0.59912586 0.97425437 0.5945678 -2.0807385 -0.61159897 2.4073942
0.83277565 -0.8197812 -0.28137696 0.7219847 1.3077613 2.082637 0.7787154 -0.7227416
-0.4844842 -0.0056936033 -0.4099415 0.571668 0.79400724 0.36818254 0.60213673 0.48944396
0.08061716 0.91448843 -0.84647036 0.2711354 0.65161884 2.6743743 -1.5320351 -1.643473
-0.83962584 0.6709738 0.8205367 -0.23511754 -0.39621314 -0.6247185 0.10328855 -0.8973208
-0.9232802 1.1146849 1.6589139 3.596805 -1.582223 -1.521659 2.1501884 -1.208696
-0.8586751 1.0965701 1.4094033 1.1602846 -1.6847144 2.9470742 -0.6212581 0.31896845
-1.7354202 -0.15695405 -0.2610105 -0.43875164 -1.2322949 1.5057374 -0.33341226 1.2356585
-0.04524301 1.0496463 -0.50043666 -0.28771368 1.2600679 -0.6413878 1.5036448 1.0445805
0.24154647 2.3827224 -2.383865 -0.3897435 -1.496161 -1.0116237 0.11473437 1.076946
1.7208691 -1.7172104 0.20807019 0.8122835 -2.8591704 -1.8057469 -0.27264997 0.033253334
0.27120712 0.27106953 0.36844775 0.35388055 0.42911118 -1.224134 1.2432475 -1.121171
-0.5061745 -2.7663016 0.02572641 0.079195015 1.2390697 0.43696404 -0.9253516 -0.11850411
-0.51910615 -0.63979846 2.2654972 -0.5023741 -0.10362331 1.6117467 0.8836488 1.5746477
-1.090022 -0.28756627 -0.804818 0.5762802 0.67871135 0.65095115 1.95014 -1.1645794
0.017804682 0.3761391 -0.92063415 -1.5228205 -0.51422304 -1.1093307 -0.600726 0.2142969
-0.21322028 0.31711444 -0.17156008 1.369416 0.13091685 0.3539427 -0.1485796 -0.3918491
0.33938506 -0.7043093 -1.9758154 0.20027685 -0.594765 0.5538633 0.29045877 0.6987353
0.9893011 -1.2022483 0.18812019 -0.029192468 1.2525436 -0.21689886 1.0173168 0.60088754
0.2966668 0.38105813 -0.061103493 0.604401 -0.31561938 -1.2758203 -0.37140012 -2.1204524
-0.47275686 -0.33739385 -1.8853743 -0.9698719 1.3652997 0.15390031 1.788415 1.1131977
-1.1935812 -0.85972035 1.5515785 0.22672258 0.58842874 -0.978129 -1.2006891 -1.7604963
-0.8043958 0.57796615 0.43273097 0.530472 0.11221952 1.0523409 -0.35912 1.489931
-0.5585602 -1.0809517 0.36745462 0.49937564 0.5951035 -1.0722377 0.4556362 -0.24479331
1.1049616 -0.36668068 1.7419771 0.71952397 -1.6649605 1.5344603 -0.57460296 -1.3166486
1.0109638 1.69934 -1.2643465 0.54120505 0.104626514 -0.030442743 -0.9435788 0.56888276
-0.76714313 1.8614165 0.3122598 0.106822155 -0.15163463 0.74429476 -0.38857293 -1.8875203
0.3858291 -0.68074983 -0.2157577 0.92636305 -1.319497 1.2967968 0.9584787 -1.8990016
-1.1691203 -1.5540555 -0.5821175 -1.6536604 1.8068947 -0.14618005 0.53297526 -0.31359008
-0.05550231 1.013277 0.83504283 -1.2149999 -0.7168602 0.16819093 1.6024144 0.6780877

charcnn.convs.0.0.weight f4 [100, 100, 1]
00000000: 6331 373d 640e 90bd a182 a6bc 16ea b0bd
00000010: 9120 ab3d 9d2d b9bd eafe b73d 4955 37bd
00000020: ed1c 96bc 0f75 d03d 4662 b43c b3e4 83bc
00000030: 7956 c2bd fd02 08bb 9fde e63c 0c4c 85bd
00000040: c717 06bc a9c7 223e f172 9c3c 9328 d8bd
00000050: 1f09 dcbc 17be 01bd 555b 8d3d 7de4 a3bd
00000060: 16a4 0d3d afed 0d3c def7 8dbd 560a 8fbd
00000070: d4de 493c 2f87 333d 585f 42bb d7ab 4a3d
00000080: 277d 2b3c 63c6 b0bd 58cf 99bd 3b1b 673d
00000090: 17ac 8b3d b12c bbbd 3610 3bbd 2941 40bd
000000a0: cc99 41bd c528 02be 5cc7 823d ce8e 86bd
000000b0: e001 08bb 5a1d da3c 1abb b23d faa9 953d
000000c0: 15b4 253e 0014 e53d f157 5abd 0a5b c73d
000000d0: 56ab 063e 23b3 623d 416c 55bd 88d6 e03b
000000e0: cf1d 1a3e 416a 18be 2aba 233d 1b6c c33d
000000f0: 1445 3d3d d2ba aebd d08d 31bc f9d2 ab3b
00000100: 469f 0fbe a34a 473d 17c9 343d 0c67 9e3d
00000110: 799c cc3d 72aa 48bc a12b 8c3c 583a 973d
00000120: 0182 2a3d bd9b cf3c 1637 8a3d 38df d8bc
00000130: da1d 893d 2e24 d53d 1ab5 ce3b 211a 58bd
00000140: 9775 a239 4b40 8c3c 659d 0739 0f68 03bd
00000150: 8431 56bd 3e8d 833d df9f 17bd 0bb0 423c
00000160: a409 223a ab27 243d 9e20 083e 70e8 3e3c
00000170: d966 d4bc 20bc 6bbd 9662 aabb 4502 443d
00000180: 7b4d 80bd e692 e1bd 757c dc3c 1bc1 1bbe
00000190: 4653 e4bc 4a23 b9bd c302 abbd a70f e73c
000001a0: cb1c 57bd af9e 213c 3c92 ca3c 8eb7 513d
000001b0: 1550 93bd e762 44bd 7d9e dcbc 506c 793d
000001c0: 5567 89bd e296 e7bd 1bbd 61bd 5d10 803c
000001d0: 6720 ae3d 0967 303d e419 383d dff0 49bc
000001e0: 742b 43bc c6f1 013d ac76 5d3d f9d0 153d
000001f0: 0669 273d 3697 643c 8709 70bd 0da7 8cbd
00000200: 7776 c23d 03b1 1abe bfa0 aabd 2d87 a4bd
00000210: 516e da3c 7ab1 1ebc ad5c 163d 296c a13d
00000220: fdbf 823b 584d 9aba e279 d73c c7ed 9dba
00000230: dd35 65bc 32c8 213d 1c24 e83d 68a2 61bb
00000240: a26d 06be c5c1 463c dafe 0abd f9e3 c8bd
00000250: 2960 383c 4ab8 82bd 91a4 6b3c ea43 e13d
00000260: d442 043e 38e2 8a3b db14 723b 3390 b9bd
00000270: cd1b 29bd 635a 02be d343 003d b9e2 03be
00000280: 28fd 0d3e 3559 f23c 6cc4 07bd c99b 7abc
00000290: 1ff1 c6bd 469b f3bd 9e9f 8e3d d0d5 eb3d
000002a0: 073a cf3d 7c1e e13a cca0 a73d a51b 68bc
000002b0: fdc8 72bd bbda dcbc 0ee9 d7bc c0e9 8cbd
000002c0: 2c54 3b3c e72a 81bd 6cca 1c3d 4f7c 93bc
000002d0: e74d a23d 2f25 42bd 7d00 82bd 1fc7 8ebb
000002e0: cd1f 233d b10f d3ba 38bb 90bd bcf8 66bb
000002f0: 6b84 9cbd 050b 9e3d 71a3 773d b57a 9a3d
00000300: 66f0 b13c d4f3 853d 4552 c6bd fc3a 553d
00000310: 3741 833d 4c57 d5bd 0130 803d 1667 a73d
00000320: a0a7 053d 73d3 3abc 86dc 23bd 5035 8c3d
00000330: cffe ecbc 09b7 443d 5db8 fabd 45e8 88bc
00000340: a0fd e5bb 8f50 1fbc 3093 e63c 0b07 3ebb
00000350: 9868 0c3c b0ea 0c3d ac80 ab3c 6eb5 9a3b
00000360: aceb ae3c eac5 d43c 0869 ba3d 225a 943c
00000370: fc30 b63d 0f7e 963d 5acc 8f3d 0348 ef3c
00000380: 6bb2 0c3e cbcd 51bd 8f18 cd3c bfaf 6b3c
00000390: d30e a13d 07f0 1fbe 9a75 103d a008 6cbd
000003a0: 508a b7bd 5750 dfbd 6882 713c 9819 b83c
000003b0: 80c9 9c3c 343b cfbd 73be 953b 01c8 003e
000003c0: 7cfc 8ebd 8769 58bd 4193 6e3b c01c 1f3c
000003d0: 0f2e 89bd 3e16 a83d 507e 80bd 18e6 843d
000003e0: bae3 ef3d 3c55 0c3d 95ad 8cbd 53d3 e43c
000003f0: b568 e13d 3668 cbbd 4cab e83c 0a6a 59bd
0.044724833 -0.07033995 -0.02032596 -0.08638398 0.08355821 -0.09041903 0.08984168 -0.04475907
-0.01832434 0.10178577 0.022019517 -0.016100263 -0.094891496 -0.0020753734 0.028182326 -0.065086454
-0.00818438 0.15896477 0.019097777 -0.10554614 -0.026859818 -0.031675424 0.06902186 -0.08002565
0.034580313 0.008662625 -0.069320425 -0.06984393 0.012321193 0.043830093 -0.002965888 0.049480285
0.01046685 -0.08631589 -0.07510251 0.056422453 0.06819933 -0.091393836 -0.045669757 -0.04693714
-0.047265813 -0.12710865 0.06385681 -0.065702066 -0.002075307 0.026625324 0.08727093 0.07307811
0.16181977 0.11185455 -0.053306524 0.09734161 0.13151297 0.05534662 -0.052105192 0.0068615116
0.15050434 -0.14884283 0.03997246 0.09542104 0.046208456 -0.08531727 -0.010837033 0.0052436558
-0.14025602 0.048655163 0.044137087 0.077344984 0.09990782 -0.012247669 0.017110648 0.07384175
0.041627888 0.025342816 0.06748788 -0.026473626 0.06695147 0.10407291 0.00630821 -0.052759293
0.0003098666 0.017120501 0.00012933237 -0.03208166 -0.052293316 0.06423424 -0.0370177 0.011882792
0.0006181246 0.040076893 0.13293692 0.011652097 -0.025927948 -0.057552457 -0.0051997406 0.047853727
-0.06264778 -0.11014347 0.026914814 -0.15210383 -0.02787174 -0.09039934 -0.08350136 0.028205706
-0.052517693 0.009864493 0.024727933 0.051200442 -0.07193009 -0.047945883 -0.026931042 0.06089431
-0.06709162 -0.113080755 -0.055111986 0.015632803 0.08502274 0.043067012 0.044946566 -0.012325495
-0.0119122155 0.031724714 0.054068252 0.036576245 0.040871643 0.013952067 -0.058602836 -0.068678
0.094952516 -0.15106587 -0.08331441 -0.08033595 0.026663931 -0.009685868 0.036709476 0.07881958
0.003990172 -0.0011772318 0.026303235 -0.0012049013 -0.013989893 0.03949756 0.11335012 -0.0034429077
-0.13127759 0.012131159 -0.03393445 -0.09809107 0.011253395 -0.063828066 0.014382497 0.10999282
0.12916118 0.004238393 0.00369387 -0.09060707 -0.04128628 -0.12729792 0.031314682 -0.12879457
0.13866103 0.029583553 -0.033146307 -0.015295931 -0.09713959 -0.118948504 0.06964038 0.11515391
0.1011849 0.0017175223 0.081849664 -0.014166747 -0.05927371 -0.026959768 -0.026356246 -0.06880522
0.011433642 -0.06307011 0.038278982 -0.01800361 0.07925015 -0.047398742 -0.063477494 -0.004357233
0.03982525 -0.0016102699 -0.07066959 -0.0035243472 -0.07642444 0.077169456 0.060458604 0.07542936
0.021721076 0.06540647 -0.096836604 0.052058205 0.06408923 -0.10417041 0.06259156 0.08173959
0.032630563 -0.0114029525 -0.04000523 0.06846106 -0.028930096 0.04802612 -0.12242196 -0.016712317
-0.00701876 -0.0097237965 0.028146356 -0.0028995897 0.008569859 0.034403503 0.020935379 0.004721335
0.021352611 0.025973279 0.09102064 0.018109385 0.08896062 0.073482625 0.07021399 0.029209143
0.13739936 -0.05122165 0.025036125 0.014385163 0.078641556 -0.15618907 0.035268404 -0.057625413
-0.08961928 -0.109039955 0.014740564 0.022473142 0.019139051 -0.10118714 0.0045698225 0.12576295
-0.06981751 -0.052835014 0.0036403688 0.009711444 -0.06698238 0.08207367 -0.06274092 0.064891994
0.11713357 0.034260973 -0.06869046 0.027932798 0.110062994 -0.09931986 0.028401993 -0.053079642

charcnn.convs.0.0.bias f4 [100]
00000000: c77c 69bd 75d4 22be 4e0e 10be d6c0 03be
00000010: f5bc efbd 4024 48bd b6e0 6fbd 102b 91bd
00000020: 980a 36be 9ac7 c6bd e91d 2dbd f403 73bc
00000030: e355 8abd fa76 12be f9ec debd 414b 91bd
00000040: 3a6a cbbd da9a 85bd c237 cabd b302 05be
00000050: 312c 05be a6f9 92bd 87fa 97bd b3ae 98bd
00000060: b9d8 5cbd 026c 81bc 8827 28bd 457c 28bd
00000070: 26cb 0bbe e682 b5bd 1a7e 28be 236d 8fbd
00000080: 32e3 19be 9b08 99bd e865 26be 1912 72bd
00000090: a575 1ebe 855b 2fbe 5cbb e5bd 943d cabd
000000a0: 24ad bfbd 1842 dbbd 6919 c6bd 26ce 2ebe
000000b0: bb4a 1abe 649d 38be 297d bfbd 8475 6dbd
000000c0: aeff 5ebd 21ac 5fbd 64f1 2bbe 166e a6bd
000000d0: 6e78 61be 562b 46bd 6795 c4bc e6fb f7bd
000000e0: abd8 02be 3842 59bd 35aa 19be df10 25be
000000f0: e350 febd b9ac 71be c1dc d6bc 2577 8fbd
00000100: 370e cdbd b695 bfbd b193 ecbd 6ad7 52bd
00000110: 90c2 24be 53a0 5abd 12ae 26be 38e7 2dbd
00000120: 6e25 cebd 62ee 2cbe cef8 d3bc 956f 4ebc
00000130: 45aa 7bbc 50e6 e4bd 1413 30be 354b 6fbd
00000140: 3401 96bd 10d6 75bd fc2c 22be 0e7b d7bd
00000150: 422f c13d 52bb 4cbe 36fb 05be c157 08bc
00000160: de17 fdbd 90fe f2bd 9eb8 2bbe f88b e0bd
00000170: 1ef7 adbd 9e04 0cbd bfdb d9bd c44f e3bc
00000180: 5f8a babd bf4f 44bd d26e 30be 4081 3cbd
-0.057003763 -0.15901358 -0.14067957 -0.1286653 -0.117059626 -0.048862696 -0.05856391 -0.07088292
-0.17777479 -0.0970604 -0.042264853 -0.0148324855 -0.06754663 -0.14303198 -0.10885043 -0.07094432
-0.099323705 -0.06523676 -0.09873916 -0.12989311 -0.13005139 -0.07176523 -0.07420831 -0.07455196
-0.05391762 -0.015798572 -0.041053325 -0.041134138 -0.13651714 -0.088628575 -0.16454354 -0.07003238
-0.15028074 -0.074723445 -0.16249812 -0.05909929 -0.15474565 -0.17124756 -0.112173766 -0.09875026
-0.09359196 -0.10705966 -0.09672815 -0.17070827 -0.1506757 -0.1802879 -0.09350044 -0.0579734
-0.054443054 -0.054607514 -0.16791302 -0.08126466 -0.22018597 -0.048381172 -0.023997022 -0.12108593
-0.12777965 -0.053041667 -0.15006335 -0.16119717 -0.12417772 -0.23601045 -0.02622831 -0.07005147
-0.10012477 -0.09354727 -0.115516074 -0.051474966 -0.16089845 -0.053375553 -0.1627734 -0.042456836
-0.10065733 -0.16887811 -0.025875475 -0.012599845 -0.01536042 -0.11176741 -0.17194778 -0.058421332
-0.07324448 -0.0600186 -0.15837473 -0.10521518 0.09432842 -0.19993332 -0.1308411 -0.008321703
-0.12358068 -0.1186496 -0.16769645 -0.10964197 -0.084943995 -0.03418409 -0.10637616 -0.027747996
-0.091084234 -0.047927614 -0.17229775 -0.0460217

charcnn.convs.1.0.weight f4 [100, 100, 3]
00000000: 8cac a53d abfc c3bd e151 1839 e7e9 21bd
00000010: b8be 5e3c 62dd 39bd c41f 1f3c 8cf5 0cbd
00000020: a941 d53c ddfc a03d 1216 7a3d ba74 793c
00000030: 2e39 d53d 3c4f 8bbd 7392 c23d 6d9e 9f3d
00000040: 1faf 87bc c075 573d 182e 843d 703a a53c
00000050: 18bd 74bb 279a 81bd a133 9cbd 336a 03bd
00000060: ee74 8d3b 8374 9c3c 4005 c1bd 06b4 ec3c
00000070: afd1 653d 2b94 573e f840 893a 0a57 e3bc
00000080: 09ca ec3b 5d83 923d de5b 89bc a878 12ba
00000090: 4e07 6cbd edde 943d 7f06 903c cbb5 c3bd
000000a0: 0fb5 89bd 5fb0 c73d 5862 7a3d fb94 6b3d
000000b0: f85b f13c 5038 d03c 72cc 89bd 895e 8f3c
000000c0: 8f18 aa3d deab 153d 2857 173d f2ee 4c3d
000000d0: fe5e b73d cfe1 893d 6d91 47bd ef36 85bd
000000e0: dc8c 0abd afc9 99bc 7182 1ebd 8b88 babd
000000f0: f93d a53d ca9f 9c3d 2506 363e f679 1a3d
00000100: 5883 0d3e b7e8 0e3e 8932 5dbd e076 06be
00000110: e8ed b3bd c6b8 c5bd 87bb cd3a fd61 b1bd
00000120: e823 873d 8059 143e 80da 7f3d 6637 afbc
00000130: 472c 9b3d 3882 303c f290 96bd 2bcd 2bbd
00000140: dde2 5c3b fe8b 453d c553 18be 0ba1 4d3d
00000150: 6e2f 46bd 7c24 813d 4426 ccbc 079f 35bd
00000160: 3bcd b8bd 2bdf 0fbe d2c7 d63d 1703 003e
00000170: d349 15be f687 d2bd 9501 01bd c77d 6b3c
00000180: 618b 073d ac43 363c 74e4 a0bd 89d7 e83b
00000190: 7fcd 783c 3f33 5fbb d336 38bd faf5 b4bd
000001a0: e844 7c3d 5be5 db3c 2585 2e3c 4f18 a0bd
000001b0: a047 383d f7f1 d2bc 76d4 483e ec68 603d
000001c0: 7c12 2dbd 6c63 0dbd 9e61 3b3d fe18 6cbd
000001d0: 0596 573e cf31 c53b 01f9 0d3e 3335 9dbc
000001e0: 54f1 933c d7f1 053d 78d0 12bc 88bc 35be
000001f0: ca35 90bd 619a 0bbd 740e 303b 9b57 e9bd
00000200: 26ff 183d e7e2 f63b 4715 88bd e3de c9bc
00000210: e319 d0bd 5922 093d fea8 27be f2a6 8dbd
00000220: 4e2e 5ebc 7f61 923b 28ca f8bd 1237 2e3d
00000230: 6f50 4bbd 3d23 aa3d b788 b23d 5cf0 6f3c
00000240: 053a 943c f9a4 bcbd 9fa8 293d a58f c0bd
00000250: df3c 8d3d e919 a23c aedb 813c 6898 073c
00000260: b182 bf3d 1a75 983d 34be 223d 564f d43d
00000270: ae85 953d 7e4b 2dbd 2d34 f43d 8bcc 243d
00000280: 733b d33b 837f 583e 0d5d 373d ce9b ca3d
00000290: 0015 993d e6ee 2d3d ab4f 9ebd 2777 9b3c
000002a0: 6a11 063e 8f70 543d 58e0 97bd e53d 79bc
000002b0: 592b 6abc d921 f4bd c78a a83d f111 943d
000002c0: ce93 023e b26e e33d d2b9 d33d 14c4 983a
000002d0: 52ae a73d e42b b43c 83df ba3d 81ab 153e
000002e0: 021a f03d e340 12be 7e95 9cbd bf74 0b3e
000002f0: 49a2 d8bd ed0b ad3c df96 c93d 159f 243b
00000300: 8e2f 16be dfd1 67bc 2461 a0bd 0759 1e3e
00000310: 034e cc3c 7cb9 643c e469 403e cfae 843d
00000320: 82f7 923c 069c 38bd 0559 af3c e0fd 173a
00000330: c021 ba3d 16e9 fbba 16fc 113d b0e3 073e
00000340: 7644 f53c 109c 893a d3f5 803d b0c3 c93c
00000350: 7ba1 c73c 7118 ae3d c4b6 c6bb 93ca ec3d
00000360: c3b9 1bbe 5000 f7bd 29c5 52bd bdc0 293d
00000370: dea9 a43c c822 103d 28f3 9b3d 291e d4bb
00000380: eea3 b93d 5cce f0bd ccff ef3d d260 a53d
00000390: 4469 89bd 693b b23c 57f8 a23c 4f60 293c
000003a0: a604 62bd 76e2 39bd 8b52 9dbd 0de0 b9bb
000003b0: ac4d d43c 8157 573d 9506 453e 568f d5bc
000003c0: 696d cb3d d9e1 91bd 09cd 29be b033 5039
000003d0: ef38 aa3d b0ce 00bd e6d7 ffbd 730f a7bd
000003e0: 374a 0dbd a602 45bd ee0f c0bb 4285 833c
000003f0: 6ed1 ccbd 0170 fcb9 114e bdbd 0787 063d
0.08089551 -0.09569677 0.00014526352 -0.039529707 0.013595276 -0.045377143 0.009712163 -0.03441386
0.026032286 0.0786073 0.061056204 0.015225584 0.10411297 -0.06802222 0.09500589 0.07793889
-0.016562996 0.05260253 0.06454104 0.020169467 -0.0037344154 -0.0632823 -0.07627035 -0.0320837
0.0043169176 0.019098526 -0.094248295 0.028894436 0.056108173 0.21052615 0.0010471633 -0.027751464
0.007226233 0.07153962 -0.016767439 -0.0005587437 -0.057624154 0.07269082 0.017581223 -0.09556159
-0.06723987 0.09750437 0.061128944 0.057515126 0.0294628 0.025417477 -0.06728448 0.017501133
0.083054654 0.03654086 0.036948353 0.050032564 0.08953665 0.06732523 -0.048722673 -0.065046184
-0.03382574 -0.018772928 -0.038698617 -0.09108075 0.08068461 0.07647665 0.17775781 0.037713967
0.13819635 0.13955961 -0.054003272 -0.13131285 -0.087856114 -0.09654383 0.0015696146 -0.08661268
0.065986454 0.14487267 0.062464237 -0.02138872 0.075768046 0.010773234 -0.07351865 -0.04194371
0.0033704557 0.04822921 -0.14875706 0.05020241 -0.048385076 0.06305787 -0.02492059 -0.044341113
-0.090235196 -0.14049976 0.104873314 0.12501179 -0.14578943 -0.10279839 -0.03149565 0.014373249
0.033091906 0.011124533 -0.07856074 0.007105772 0.015185713 -0.0034057645 -0.04497416 -0.08835979
0.06158915 0.026842764 0.010651861 -0.078171365 0.044990182 -0.025750143 0.19612297 0.05478756
-0.042253956 -0.034518644 0.045747392 -0.057641022 0.21053322 0.0060179005 0.13864519 -0.019190406
0.01805941 0.03270134 -0.008960836 -0.177477 -0.070415094 -0.034082774 0.0026864083 -0.113936625
0.037352704 0.007534373 -0.06644683 -0.024642413 -0.101611875 0.033480022 -0.16373059 -0.06916608
-0.013560845 0.004467189 -0.12147933 0.042532988 -0.049637254 0.083075024 0.087174825 0.0146447085
0.018094072 -0.092111535 0.041420575 -0.09402398 0.06896376 0.019787746 0.015851822 0.008276083
0.09351099 0.0744421 0.039732173 0.10366695 0.07300888 -0.042308323 0.11924014 0.04023413
0.006446296 0.21142392 0.044766475 0.09892999 0.074747086 0.04246416 -0.07730039 0.018977715
0.1309258 0.051865157 -0.07415837 -0.015212511 -0.014292561 -0.119205184 0.08229595 0.072299846
0.12751696 0.11105098 0.10338177 0.0011655116 0.08187546 0.021993585 0.09124663 0.14616205
0.117237106 -0.14282565 -0.07645701 0.13618754 -0.105778284 0.02112385 0.098432295 0.0025119234
-0.14666578 -0.014149158 -0.07831028 0.15463649 0.024939543 0.013960239 0.18790394 0.064786546
0.017940287 -0.04507067 0.021404753 0.0005798023 0.090884686 -0.0019219245 0.0356408 0.1327045
0.029939871 0.0010498781 0.06296887 0.024629444 0.024368992 0.085007556 -0.006064268 0.115620755
-0.15207581 -0.120606065 -0.051457558 0.041443575 0.02010053 0.03518942 0.07614738 -0.006473322
0.0906447 -0.1175811 0.11718711 0.08075108 -0.06709531 0.021756845 0.019893808 0.010337903
-0.055180214 -0.045381986 -0.076817594 -0.005672461 0.025915943 0.052573685 0.19240792 -0.026069324
0.09932978 -0.07123155 -0.16582121 0.00019855681 0.083116405 -0.031447113 -0.12492351 -0.081572436
-0.034494605 -0.04809823 -0.005861274 0.016054753 -0.10000883 -0.00048148635 -0.092434056 0.032843616

charcnn.convs.1.0.bias f4 [100]
00000000: 2bad 59be f41d 1dbe 22ad debd ec9c 13be
00000010: afdd 40bd 80a6 61bd d3d5 14be 283e aabd
00000020: 1652 27be dec7 f1bd 9a97 23be 70b2 d7bd
00000030: d446 f8bd 5963 46be b66a 0bbe 56dd 42be
00000040: 234c 4abe 5d57 b0bd d35f 92bd 98cb 3ebe
00000050: 6ff4 a1bd b937 d6bd 0bb5 8fbd d6d7 04be
00000060: efff 44be 05ef 58be 37a4 31be 882f c4bd
00000070: 5901 d1bd 9a55 89be f3fc 11be ad40 babd
00000080: c84b d4bd 243b acbd 4a1f 12be b177 57bd
00000090: bc87 21be e2c7 22be ce5e e6bd 3064 eabd
000000a0: ff44 e6bd 6de3 d8bd 363e a6bd a128 0ebe
000000b0: 3d94 22be 21f8 31be 682d 92bd 82ce 45be
000000c0: 6f28 dfbd 69d2 98bd 924c c7bd 2243 f5bd
000000d0: d60c 88be ca55 1bbe e3db dbbd 1aa4 e3bd
000000e0: a400 c2bd 7b05 14be 4036 3dbe 647e a1bd
000000f0: 4adb 2cbe 0325 79bd c0e9 29be 35fb edbd
00000100: 53ce 29be ebaa 97bd 9a24 99bd 0c8f 06be
00000110: 5672 d6bd 19d9 acbe 74ed f7bd f7ad 2cbe
00000120: 5485 0abe 504e 2dbe c769 f9bd 4fd2 4fbe
00000130: 7bba ffbd c9ab 40be 986d bebd 7abe dabd
00000140: f5b4 12be 03f5 21be 92b3 24be bbd8 2fbe
00000150: 801f 44be 058b 7fbe 3e56 f2bd 8995 1cbe
00000160: 5d3c 85bd 18ba 06be db7f 1fbe 066e a2bd
00000170: c406 edbd c56a 15bd 6334 d4bd 1bc3 a3bd
00000180: 41df 15be d56d b2bd 6c3f 19be 141f 4ebe
-0.21257465 -0.15343457 -0.10872866 -0.1441533 -0.047086414 -0.055090427 -0.14534692 -0.083126366
-0.16339907 -0.118057 -0.159758 -0.10532081 -0.121228844 -0.19373836 -0.13614926 -0.19029745
-0.19755606 -0.08610413 -0.07147183 -0.18632352 -0.0790795 -0.10459847 -0.07016953 -0.1297296
-0.19238256 -0.21184929 -0.17347799 -0.09579378 -0.10205335 -0.2682312 -0.14256649 -0.09094367
-0.103660166 -0.08409718 -0.14269748 -0.05260438 -0.15774435 -0.15896562 -0.11248551 -0.114448905
-0.11243629 -0.10590253 -0.081173345 -0.13882686 -0.15876861 -0.1737981 -0.07137567 -0.19317058
-0.10896384 -0.074620076 -0.097314015 -0.11975695 -0.26572293 -0.15169445 -0.107352994 -0.11115284
-0.094727784 -0.14455216 -0.18477726 -0.07885435 -0.16880527 -0.060826313 -0.16593075 -0.116201796
-0.16582613 -0.07405647 -0.07477684 -0.13140506 -0.104710266 -0.33759382 -0.121058375 -0.16863237
-0.13527423 -0.16924405 -0.121783786 -0.2029507 -0.1248674 -0.18815531 -0.09298247 -0.10680862
-0.14326842 -0.15816121 -0.16084126 -0.1717252 -0.19152641 -0.24955375 -0.11832856 -0.15291418
-0.06505654 -0.13156927 -0.15576117 -0.079311416 -0.11573556 -0.036478776 -0.103615545 -0.07996198
-0.14635946 -0.08712355 -0.149656 -0.20129043

charcnn.convs.2.0.weight f4 [100, 100, 5]
00000000: 01d6 1e3c 6738 5ebc 1aa4 f73d b9dc 7b3c
00000010: 6164 c13c 93df 8fbd b51a ad3c a83b bbbd
00000020: fcaf 84bd 2b61 143d e3a6 b7bc 2b86 373d
00000030: 0698 c0bd 7643 4b3d 54ad 65bd 4a62 b3bc
00000040: 9dbf 113c 5ff1 04bd 46e8 52bd 4e69 93bc
00000050: 6239 e83c 8ac9 2abd 738a c7bc c626 ee3d
00000060: c333 803d 2178 abbd 1704 80bd 2adb d63c
00000070: c318 83bc 0719 123c 7900 bd3d dad1 f6bc
00000080: 3fa6 12bd 8873 c63d c890 afbc 2e59 acbc
00000090: cbeb 8ebd 5efc d0bc 1acd 5fbd e8a6 233c
000000a0: 221d b73d adce 39bb a501 1c3c 2040 8d3d
000000b0: 7e8a 49bd 1c47 343d 4eee b13d 1f3f 903c
000000c0: 596e b9bb 2d38 313d 638d d6bd af51 7a3d
000000d0: 1999 9abd cfd1 1abd b560 6fbd 81c0 283d
000000e0: cb2c c43d 90a7 8b3c a6da 853d 61e1 0ebd
000000f0: 6faf 193d c61e 96bd 37db 983c ebcc debc
00000100: cd12 5a3c cda1 c339 8b1e 40bd a651 01bd
00000110: 4695 33bd c193 0dbd ce42 3abc d7e5 d7bc
00000120: 8bce 1a3d 6785 d43c 0ac4 61bd c9c2 0dbe
00000130: d649 2c3c fab2 14be 687d 253e 3be1 093c
00000140: d3cd fc3d f553 5ebd c112 1d3e 235e 703d
00000150: b64c e4bd 45a9 6b3d f1ae 58bd 8d46 b93d
00000160: de56 363d 7c0e 243d 3526 4c3c 2679 793b
00000170: 6412 213e 04f9 c7bd a04f 183e d8c6 233d
00000180: 002a a83d c931 ef3a c8fc 523d 483d 0cbc
00000190: e557 0b3e 1ab5 cd3d b33e 0dbc a316 39bd
000001a0: ed39 3fbd c3b4 9cbb b32c 19bd a584 343b
000001b0: 9b3f 6e3d 7c11 863d e1f6 11bd e9e8 d93c
000001c0: 3ea0 08be 85f2 fbbd 5b08 a43d 94b1 a73d
000001d0: 47ee 753d ac69 8abd e100 d63c 66b2 dbbd
000001e0: fd94 6d3c 504f d6bd 044f 893d 85fe 893d
000001f0: adeb ffbd f4df 0c3c b860 f6bc 7323 2b3c
00000200: 0c02 da3d 5ec3 7d3c 2eb0 55bd 6207 233d
00000210: 8fd2 eabc afdd d7bd 8d74 a6bc eca5 aebd
00000220: f55f e33c 9dce a73d 50b7 51bd f927 4dbd
00000230: d6df eb3c 0fdf 143b d89a a13d 2291 733c
00000240: 8e53 9bbd 39aa a4bd 1c3a a7bd d0e8 de3c
00000250: 411a c2bd b9dd 42bd 5d27 c0bd 617f 0ebd
00000260: dc9b 843d aa3b 9ebb 7f2c bd3d 17b8 003e
00000270: 861d 303d 804d 95bc bd51 273d fa5f c23d
00000280: c059 6f3d ea42 67bd e080 4dbd ba0b aabc
00000290: f87a 2cbd 81fd 03bd 3448 b6bd 42b9 103d
000002a0: 0d90 a33c e5d2 893d df39 b8bc 3a3a 83bc
000002b0: 242b 68bd 465f 43bb d306 643a 2851 723d
000002c0: 9f4f 963d 2b38 003c a90e 36bc 940a 25be
000002d0: 1525 a0bd c2b4 fdbc 234f 983d 5c3c a4bd
000002e0: b69f d83c 0781 533c 6733 ff3b f545 ed3d
000002f0: d0ef 0ebd 649f dd3c 1c68 f2bd bec0 0c3d
00000300: fdc3 a0bb 66d6 983d acca ce3c 0202 ef3c
00000310: ae2e 7cbb 769d 973c 3926 c43d b39f 5ebc
00000320: f635 0ebd b075 6b3a dd55 39be 9577 f03c
00000330: bf3b abbd cba3 01be 6b2f 923d 977f 9fbc
00000340: 2081 2cbe cf04 093d 4225 c9bd 580b 42bd
00000350: 2015 8e3d 5ecb 813d 792a 49bd 0f9d 3a3d
00000360: 4a1a ba3d d9a9 003d 4759 96bd f693 843d
00000370: ca52 393c 824d 1bbe 1177 8dbb 50e5 20bd
00000380: 402a a53c 7709 d8bd bed9 0d3d 224c 813d
00000390: ae61 bdba ffa2 813d 5e2f 66bc c735 f5bd
000003a0: 44b2 dfbc 81a1 993d f460 aa3d f20a e6bd
000003b0: 00a1 85bd 7403 983b 9172 553d 8258 f6bd
000003c0: 159a ad3a 687e b9bd 4496 76bd ebf0 00be
000003d0: bf26 26be ef6b 49b9 e7f7 7a3d 959b 89bc
000003e0: aa53 413c 9f01 133d 7a42 973d e4d4 91bb
000003f0: 6eee db3d 4122 d2bd 2898 f63d 0781 0a3d
0.009694577 -0.013563252 0.12091847 0.015372449 0.023607435 -0.07025065 0.021130899 -0.09142238
-0.06478879 0.03622548 -0.022418445 0.044805687 -0.09403996 0.049624883 -0.0560735 -0.021897454
0.008895782 -0.032456752 -0.051491044 -0.01799455 0.028347675 -0.04169611 -0.02435801 0.11628489
0.06259873 -0.08372522 -0.0625078 0.026227552 -0.016003018 0.0089171 0.09228606 -0.030129362
-0.035803076 0.096900046 -0.021431342 -0.021038618 -0.06978568 -0.025510963 -0.05463896 0.009988524
0.089411035 -0.0028351948 0.009521876 0.068969965 -0.049204342 0.044013128 0.08688031 0.017608223
-0.0056589064 0.043266464 -0.10476186 0.061113056 -0.07548732 -0.037797745 -0.058441836 0.04119921
0.09578856 0.017047673 0.065358445 -0.034882907 0.037520822 -0.07330088 0.018659217 -0.027197322
0.0133101465 0.0003731385 -0.046904128 -0.031572007 -0.04384353 -0.034564737 -0.011368467 -0.026354713
0.03779463 0.025942517 -0.055118598 -0.13843836 0.010515651 -0.14521399 0.1616112 0.008415516
0.12343945 -0.054279286 0.15339185 0.058683526 -0.11147444 0.057534475 -0.052901212 0.090466596
0.044516437 0.040052876 0.012460281 0.0038066595 0.15729672 -0.09764293 0.14874125 0.039984554
0.08211136 0.001824909 0.051510602 -0.008559532 0.13607748 0.10044308 -0.008620906 -0.045187604
-0.0466861 -0.0047822907 -0.037396144 0.0027544883 0.058166128 0.06546304 -0.035635833 0.026600318
-0.13342378 -0.12302116 0.08009406 0.08188167 0.060041692 -0.067584366 0.026123466 -0.10727386
0.014500854 -0.104643464 0.06704524 0.06737999 -0.124961235 0.008598316 -0.030075416 0.0104454635
0.10644922 0.015488474 -0.05216997 0.039801963 -0.028664855 -0.1054033 -0.020319248 -0.08527741
0.027755717 0.08193705 -0.05120021 -0.05008695 0.028793257 0.002271596 0.07890862 0.014866145
-0.07584296 -0.0804028 -0.0816538 0.027210623 -0.09477664 -0.047574732 -0.09382508 -0.034789447
0.0647504 -0.00482889 0.092370026 0.12570225 0.042996906 -0.018225431 0.040849436 0.09490962
0.0584352 -0.0564603 -0.050171733 -0.020757545 -0.04210946 -0.032224182 -0.089004904 0.035332926
0.01996615 0.06729678 -0.022488533 -0.016018976 -0.056681767 -0.0029811426 0.00086985267 0.059159428
0.07339405 0.0078258915 -0.011111894 -0.16117316 -0.07819573 -0.030969981 0.07436969 -0.08019325
0.026443344 0.0129091805 0.00778811 0.11585609 -0.03489667 0.027053542 -0.118362635 0.0343635
-0.004906176 0.07462768 0.025243126 0.029175762 -0.0038479972 0.0185077 0.09577603 -0.01358788
-0.03471943 0.00089820754 -0.1809916 0.029353896 -0.08361005 -0.12660138 0.071379505 -0.01947002
-0.16846132 0.03345185 -0.098215595 -0.0473741 0.06937623 0.06337617 -0.04911277 0.04555994
0.090870455 0.03141198 -0.07341247 0.06473534 0.011311242 -0.15166286 -0.0043171723 -0.03928119
0.020161748 -0.1054868 0.034631483 0.06313349 -0.0014448666 0.06329917 -0.014049379 -0.11973148
-0.027306683 0.075015076 0.083192736 -0.112325564 -0.06524849 0.0046390835 0.052111212 -0.120286
0.0013244773 -0.09057313 -0.0602019 -0.12591903 -0.16225718 -0.00019209062 0.061271574 -0.01679782
0.011799732 0.035890218 0.07385726 -0.0044504274 0.10738836 -0.1026044 0.1204074 0.033814456

charcnn.convs.2.0.bias f4 [100]
00000000: bc13 c3bd 4f2d 21be 5d50 03be 046f 00be
00000010: 9239 8ebe 721a 1bbe d45b 81be f466 2bbe
00000020: df8b 17be f568 f0bd ca87 25be c275 d5bd
00000030: d9ab 0bbe f090 e5bd 90e1 e5bd 910e 09be
00000040: 635d 56be c2e2 cabd eedf 4fbd 816b ecbd
00000050: bad5 d4bd 2740 bebd 8cc8 e5bd 0c12 15be
00000060: 90b0 b7bd 64bc d0bd c731 01be abb4 44be
00000070: 1975 01be c402 03be d1cd d1bd fe68 08be
00000080: 4557 0dbe 83c1 babd 59b6 b8bd f875 ccbd
00000090: da3f 0cbe 2e61 10be 23c7 ebbd 8161 30be
000000a0: 23c6 08be b00a 1dbe 3f12 37be 977f c4bd
000000b0: d7c7 13be 3edc f4bd e75c 1fbe 877a 0bbe
000000c0: 026c c6bd e845 ecbd 6772 e4bd c81d 1dbe
000000d0: 2b47 32be 6a7e 19be efbc 23be 28c3 dabd
000000e0: 1f75 2dbe 4812 16be 45d5 20be d2a2 d2bd
000000f0: 652e b6bd 5aa0 07be fcda 8ebe 333f 0bbe
00000100: ce8a d9bd bfe2 e5bd f7e6 37be 69f5 08be
00000110: 7e96 ebbd 2d8c 32be b500 cbbd 798e bfbd
00000120: 33c0 1bbe 3068 dabd 0076 46be 4285 0ebe
00000130: fdb2 16be c224 e3bd bed6 63be c45a 30be
00000140: eb71 d3bd a1d1 5abd bd8e 26be 41e3 2dbe
00000150: bad9 07be 277a dfbd d7eb 04be e7f4 22be
00000160: 9063 e8bd f021 acbd 0306 11be b7ed e6bd
00000170: a8f0 edbd 44e7 00be 7fd6 3abe a4f9 f0bd
00000180: 6acd f6bd 925a 33be 91f2 94be 1a6a 9abd
-0.095252484 -0.1573994 -0.12823625 -0.12542349 -0.27778298 -0.15146807 -0.25265372 -0.16738492
-0.1479945 -0.11738769 -0.1616508 -0.10422851 -0.13639773 -0.11209285 -0.11224663 -0.13384463
-0.20934062 -0.09906532 -0.050750665 -0.11543942 -0.103923276 -0.0928958 -0.11219892 -0.14557666
-0.089692235 -0.10192183 -0.12616645 -0.19209544 -0.12642325 -0.12794024 -0.102443345 -0.13321301
-0.13802822 -0.09118941 -0.09019155 -0.09983438 -0.13696232 -0.14099571 -0.11512592 -0.17224695
-0.13356833 -0.15336108 -0.17878054 -0.09594648 -0.14431702 -0.1195607 -0.15562783 -0.13620959
-0.096885696 -0.11536771 -0.11154633 -0.15343392 -0.17409961 -0.1498963 -0.15990041 -0.10681754
-0.1693921 -0.14655411 -0.15706356 -0.10284962 -0.08895568 -0.13244763 -0.27901447 -0.13598327
-0.10622178 -0.11224889 -0.179592 -0.13374867 -0.115033135 -0.17436285 -0.09912244 -0.093533464
-0.15210037 -0.106644034 -0.19380951 -0.13918021 -0.14716716 -0.11090995 -0.22249886 -0.17222124
-0.103244625 -0.053422574 -0.16265388 -0.16981222 -0.1326665 -0.109119706 -0.12980591 -0.15913735
-0.11347115 -0.084049106 -0.1416245 -0.11275809 -0.11618167 -0.12588221 -0.18245886 -0.11766365
-0.120508984 -0.17515019 -0.29091313 -0.075397685
